model/gru_model.pt (torch, 102389 bytes, 16 tensors)

conv0.weight f4 [2, 2, 1, 3, 3]
000000 25 52 35 be 70 97 56 3d f3 ba fb bd 42 2f 11 3e
       -0.17707117 0.052390516 -0.12291517 0.14178184
000010 90 2e 69 be 68 8c f8 bc 03 18 1d 3c f7 da 20 bc
       -0.22771668 -0.030340388 0.009588244 -0.00981783
000020 74 e5 1f 3d 30 25 eb bd cb e2 54 3d 22 42 ba 3d
       0.039037183 -0.11481702 0.0519741 0.09094645
000030 1b 96 16 3e 7a 6e b3 bd 73 4e d5 bc cf a7 19 bd
       0.14705698 -0.08761306 -0.026038384 -0.03751355
000040 10 98 ec bc c4 53 37 3e a3 f9 13 3d 61 d5 b9 bd
       -0.028881103 0.17903048 0.036126744 -0.09073902
000050 60 92 92 3e af 16 51 bd 8e 91 61 3d 54 a7 4b 3e
       0.286273 -0.051047023 0.055070452 0.1988805
000060 d5 48 5e be e5 e5 1e 3d 5a ca d7 3e a6 2e 62 bd
       -0.2170747 0.038793463 0.4214657 -0.05522027
000070 ea d8 89 bd 8e 52 ed 3b 3f 08 f7 bc 3b a3 08 be
       -0.06730826 0.0072425073 -0.0301553 -0.13343517
000080 11 54 7a 3c 5d 91 2d 3e 61 2a b0 bc cc ed 00 be
       0.015278832 0.16949983 -0.021504583 -0.12590712

conv0.bias f4 [2]
000000 b4 d4 22 3e da 70 48 3e
       0.15901452 0.195743

conv1.weight f4 [2, 2, 1, 3, 3]
000000 18 6a 92 bd 5e e5 e2 bc 29 c0 3f 3e 0e 7a 28 be
       -0.07149142 -0.027697261 0.18725647 -0.1645281
000010 82 35 52 be d8 51 75 3e 19 57 c1 bd 71 45 04 be
       -0.20528224 0.23957002 -0.09440441 -0.12917115
000020 f2 38 bd 3c 22 a9 f2 3d e9 31 27 be 58 2b b2 bd
       0.023098443 0.11848666 -0.16327633 -0.086996734
000030 30 1c 12 3e ba 5b 3e 3e 06 02 c4 bd e6 2c 30 ba
       0.14268565 0.18589678 -0.095706984 -0.00067205576
000040 63 bd 43 be 49 28 c9 bd 77 e3 c9 3d bb cc 87 3d
       -0.19115214 -0.09822137 0.098578386 0.06630846
000050 34 7b 50 be ac 18 40 3e ca f1 21 3e 5c 1e 30 be
       -0.20359498 0.18759412 0.15814891 -0.17199081
000060 d7 c5 d0 3c 77 52 02 3e 65 a4 1e bd e6 1c 26 be
       0.025484962 0.1272677 -0.038730998 -0.16221961
000070 be fe 5b 3e e7 7b ad bb 7f 12 6f bc 11 50 84 be
       0.21483895 -0.0052943113 -0.014591812 -0.25842336
000080 9a 39 61 3e 87 4a 03 be 36 b5 73 3e d0 e5 47 3d
       0.2199463 -0.12821399 0.23799595 0.04880315

conv1.bias f4 [2]
000000 da 25 3a 3e b1 81 05 be
       0.18178502 -0.13037755

norm.weight f4 [2]
000000 45 60 12 40 58 f3 10 40
       2.2871258 2.2648525

norm.bias f4 [2]
000000 c6 cb dd 3c d3 cd dd bc
       0.027074706 -0.027075684

norm.running_mean f4 [2]
000000 5f 3c 43 c0 f6 30 80 40
       -3.0505598 4.0059767

norm.running_var f4 [2]
000000 a6 fe bd 46 fc 25 bb 46
       24319.324 23954.992

feature_conv.weight f4 [1, 2, 1, 1, 1]
000000 25 cc c8 bf 0b 6f dd 3f
       -1.56873 1.7299513

gru.weight_ih_l0 f4 [192, 49]
000000 2f 14 72 3d a7 a6 80 be 31 5a 58 3d a7 6c d6 bd
       0.05910128 -0.25127146 0.05282039 -0.104699425
000010 f0 0b 02 3e 2f dd 0b 3d 9e 7c 68 3d bc d5 87 bd
       0.12699866 0.034146484 0.05675947 -0.066325635
000020 be a9 4a 3d 07 8b c9 bd 68 f2 13 3e dd 94 dd bd
       0.049478285 -0.098409705 0.1444794 -0.10819409
000030 47 f2 35 bd d5 86 c0 bd e9 88 84 bd fd 2d 28 bd
       -0.044420507 -0.09400717 -0.06471426 -0.041059483
000040 58 81 b3 3d b4 49 2b 3e e2 dd 61 3d 52 08 94 bd
       0.08764905 0.16727334 0.055143245 -0.072281495
000050 e6 2c 5f 3d 48 22 3a be 17 e3 2b 3e 5f 3b d8 bc
       0.054486178 -0.1817714 0.16785847 -0.026395498
000060 97 c9 b7 3d 3b f2 ee 3d d7 5f 3a bd 7a 8d 48 bc
       0.08973997 0.116672955 -0.045501556 -0.012240762
000070 23 08 57 3d fe d9 13 3b 4e ee d7 3d 6b c7 0f 3d
       0.052497994 0.0022560353 0.105435 0.03510229
000080 c2 cd 51 3e 8e b3 61 3c ed ee b9 bd 0a 2e d1 bd
       0.20488647 0.013775719 -0.090787746 -0.102138594
000090 74 f7 9b 3c 4e 32 48 3c fe 0f 33 3e 7f 59 03 3e
       0.019038893 0.012219025 0.1748657 0.12827109
0000a0 00 03 79 3d c9 b5 94 3c 53 91 98 3d 7c 85 df 3d
       0.060793877 0.018153088 0.074495934 0.10914132
0000b0 13 7d ff bb d1 e1 20 3e a1 dc a9 3d 93 53 15 3d
       -0.0077968924 0.15711142 0.08294035 0.036456656
0000c0 bd de aa 3c c8 1f b2 bc fa 06 ca 3d c3 ab 0a 3e
       0.020858163 -0.02174367 0.09864612 0.13542084
0000d0 76 10 ac 3d b4 f1 f0 bd f5 8f 9e 3d 10 85 f6 bc
       0.08401577 -0.11764851 0.077423014 -0.030092746
0000e0 f9 eb d6 bd 1c 03 0f 3e 2f 30 87 3e 36 f6 dc 3c
       -0.10494227 0.1396603 0.2640395 0.026972871
0000f0 b2 53 0a be 79 7d f6 bd 51 70 5e bc e6 6b b2 3c
       -0.1350849 -0.12035651 -0.013576583 0.021779966
000100 11 ee 03 be 02 39 d0 3e dd 99 d6 3c 60 4f a7 be
       -0.12883784 0.40668494 0.026196415 -0.32677746
000110 80 0f 38 3e e4 5b d1 bd 14 0b 11 be 70 76 ea bd
       0.17974663 -0.10222605 -0.14164382 -0.114483714
000120 5c f7 ec bd 99 56 86 3d fc 3b 98 3c 28 4a 14 3e
       -0.115706176 0.06559486 0.01858329 0.14481413
000130 ce f0 50 3d 47 fb 57 bd 65 33 44 be a4 ef 86 3e
       0.0510109 -0.05272987 -0.1916023 0.26354706
000140 b9 57 b5 3c 93 ce c7 3d ed 33 07 3e 40 fc 3e 3d
       0.022136556 0.09756198 0.13203402 0.046627283
000150 29 c8 16 3d 5d 69 85 bc b2 ac 1a 3d 04 4b 56 bd
       0.03681198 -0.016285593 0.03776235 -0.052317634
000160 7b cf 5c 3e 58 43 48 3e 3b 7e 96 3d 40 0c 49 3d
       0.21563523 0.1955694 0.07348295 0.049083948
000170 2b a3 ad 3d 3a de 59 be ba e2 80 3e 2f da a6 3d
       0.084783874 -0.21276179 0.2517298 0.08147084
000180 6b 05 0f 3e b9 98 42 bd 3b ab 2a be a1 a0 0b bd
       0.1396691 -0.04750893 -0.16666882 -0.034088735
000190 a7 39 95 3a 7d e2 58 bd 43 40 8a 3c a5 70 ee 3d
       0.001138498 -0.05295037 0.016876346 0.11642579
0001a0 82 30 04 3e 0e 44 f2 bd c6 3f 98 bd e4 4d 0a 3d
       0.1290913 -0.11829387 -0.07434039 0.03376569
0001b0 f3 1a b0 bd 03 3f a9 bd 86 e3 fe bc b6 29 3f 3d
       -0.0859889 -0.08263972 -0.031114351 0.046670638
0001c0 a5 53 83 bd 46 d9 22 bd 19 ad 66 3c fb a3 81 bd
       -0.06412438 -0.03975799 0.014079356 -0.06330105
0001d0 09 1c f5 3d 76 53 67 3c 60 8e a8 bc 48 fa 14 bc
       0.11968238 0.01411902 -0.020575702 -0.009092875
0001e0 f9 37 06 be c8 5c 4d ba e2 ba 8b 3d 48 df 20 3c
       -0.1310729 -0.0007833955 0.068227544 0.009818859
0001f0 8d 07 3c 3e e8 c6 f5 bd 1a 8f a4 bb 7d 41 95 3d
       0.18362255 -0.12000829 -0.005021942 0.072878815
000200 6c b5 bd bd 92 86 81 bd 3c d9 39 3d 2e 2a b7 3d
       -0.09263119 -0.063244954 0.045373186 0.08943592
000210 f8 7b 5a 3e fa b1 2e 3e 63 87 65 bc 06 4a 16 be
       0.21336353 0.1706008 -0.0140093295 -0.14676675
000220 9a 80 5b 3e 3f a2 83 bc 92 60 2a be 7e be 01 3e
       0.21435776 -0.016068576 -0.16638401 0.12670323
000230 ad 18 52 3e c9 d9 d8 3c 08 2d db bd c0 b1 14 be
       0.20517226 0.026471036 -0.107019484 -0.14520931
000240 28 7b ab 3d 7a 7b 69 3c 67 5e 14 3d 5c 56 3c be
       0.083730996 0.0142506305 0.03622284 -0.18392318
000250 91 2d 17 be 67 ff 39 bc aa 61 99 3d 03 79 6a 3d
       -0.14763476 -0.011352397 0.07489331 0.057244312
000260 67 22 16 bd aa 57 4d 3d 49 6d 91 bd c8 e5 1d be
       -0.036653902 0.05013243 -0.071009226 -0.15419686
000270 50 1a 14 be d2 85 51 3e 6b 4d af bd 66 a5 43 be
       -0.14463162 0.20461205 -0.08559688 -0.19106063
000280 ee a7 f3 bd 6b a2 0b be 97 10 cd 3b 03 fd 8c 3c
       -0.118972644 -0.13636176 0.006258081 0.01721049
000290 07 c7 42 3d f8 07 09 3e d0 58 95 bd 5b 80 16 3e
       0.04755309 0.13381946 -0.0729233 0.14697401
0002a0 b1 68 d7 bd 2d f1 07 bd 39 53 4f 3d 87 70 0a 3e
       -0.10518015 -0.033188988 0.050616477 0.13519488
0002b0 37 28 ac 3d 26 70 b9 bd b1 ee 0c 3e 19 48 ed 3c
       0.08406108 -0.09054594 0.13762929 0.028965043
0002c0 05 bc 20 be 9b 8c 31 3e c9 9a 7a 3d 3e 2d 98 3c
       -0.15696724 0.17338793 0.06118277 0.01857626
0002d0 bd 70 00 be c4 e0 00 3d e0 7d 26 3e c5 8b 16 3e
       -0.12543006 0.031464353 0.16258955 0.14701755
0002e0 9d 93 0e 3d 6a ec 88 3e 7e 53 07 3d 79 a4 27 bc
       0.034808744 0.2674287 0.03303861 -0.010232084
0002f0 6c cc b6 bd e1 a9 48 bb 0e 60 da 3d 41 a0 bf 3c
       -0.08925709 -0.0030618834 0.10662852 0.023391845
000300 7c e7 49 bd db e2 ab bd c8 2f 36 3b b8 a8 a3 3c
       -0.049293026 -0.083928786 0.0027799476 0.019977912
000310 c3 29 12 be 23 24 d9 3d 27 27 50 be e8 cc 02 be
       -0.14273743 0.10602596 -0.20327435 -0.12773478
000320 35 29 ab 3d f7 c4 e0 bd 12 2f 95 be 2c f6 5f be
       0.08357469 -0.10975068 -0.29137474 -0.21871251
000330 5f eb 25 bd 8b f8 4d be 6d 7d 73 bc dd 8e f7 bd
       -0.04050767 -0.20114343 -0.014861447 -0.12087796
000340 a6 c9 80 3d 69 33 97 3d 58 52 c2 bb be 8c db 3d
       0.062884614 0.073828526 -0.0059302263 0.10720204
000350 83 5e 1f bd 3a d0 2d 3d ed ad a1 bd 0c c1 ed bd
       -0.038908493 0.04243491 -0.07894502 -0.116090864
000360 37 f3 ad bd e8 8e 79 3c 80 f2 c5 3d 1f 2b 98 3d
       -0.08493655 0.015231825 0.09665394 0.074301
000370 47 b6 b4 bd e3 15 91 bd 5c 5c 08 3e 89 73 ac bd
       -0.08823829 -0.07084253 0.13316482 -0.08420474
000380 45 c2 db bd 57 f2 04 3d 28 8d 3a 3e 6c 8e a1 3e
       -0.10730413 0.032457676 0.1821791 0.31553972
000390 6f ed 92 bd d6 f8 d2 3d 77 ba a7 bd 93 99 b4 3c
       -0.07174193 0.10301368 -0.08189862 0.022045886
0003a0 d6 06 51 be 6f 48 09 be 74 9a 29 3c a6 ec 42 bd
       -0.20412764 -0.13406537 0.010351766 -0.047588967
0003b0 90 b5 3e be 83 fd ce bc 7a e4 8f 3d a8 e4 c4 bc
       -0.18623948 -0.025267368 0.07026 -0.024034813
0003c0 ca 3a 41 3c 73 89 5f bd 36 52 ba 3d bf 63 71 3e
       0.011793802 -0.05457444 0.09097712 0.23573206
0003d0 2c c6 fd 3c 8d d6 5d bc 8a ad 03 3e 00 a5 63 3d
       0.030978285 -0.013539922 0.12859169 0.055577278
0003e0 11 55 60 3b 97 93 18 3d 20 4c 5f 3e bd 34 e0 bd
       0.003423039 0.037250128 0.21806383 -0.10947559
0003f0 d6 c6 e1 bc a8 75 12 be e7 22 b4 bb 93 7c 71 3d
       -0.027560633 -0.14302695 -0.0054973247 0.058956694

gru.weight_hh_l0 f4 [192, 64]
000000 60 d3 87 39 cd 1a 96 3d 85 6f 71 bd d8 55 38 bd
       0.00025906693 0.073293306 -0.058944244 -0.045003742
000010 cb cb 81 3e e0 6c 21 3e a3 38 a7 bd 1b 6c 1b 3e
       0.25350794 0.15764189 -0.081650995 0.15177958
000020 78 f8 6b 3e 15 14 eb 3c 5e 7d 01 3d c2 f4 b5 3d
       0.23044002 0.0286961 0.0316137 0.088845745
000030 f4 9e 21 be 4b 4d 34 be 06 71 93 3d a9 1b 40 3e
       -0.15783292 -0.1760761 0.07199292 0.18760552
000040 a9 e2 94 bd c7 06 a4 bc 9c 2a a0 bd 2c 78 45 3d
       -0.072697945 -0.020022763 -0.07820627 0.048210308
000050 fc 49 7f 3d cd 3e 46 3d 40 8c 7e bd 88 46 82 be
       0.062326416 0.048399735 -0.06214547 -0.25444436
000060 be 92 80 3d 63 e8 26 be 86 92 54 bd 3a 5e 46 3d
       0.06277989 -0.16299586 -0.05189755 0.048429705
000070 23 8b 91 3d 96 bb aa be 45 61 c2 bd bd f0 8f 3d
       0.07106616 -0.33346242 -0.09491209 0.07028339
000080 e9 b7 0b bc d5 45 c3 3c 6b 4c 3e 3e d7 ea 31 3e
       -0.008527734 0.02383701 0.18583839 0.1737474
000090 0b 70 97 bc 20 79 a4 bd 52 52 8e 3d 83 73 ae bd
       -0.018486043 -0.08030915 0.06949295 -0.08518126
0000a0 45 37 93 3d fc 12 a5 bd 98 13 07 3e 03 e0 03 bc
       0.07188276 -0.080602616 0.13191068 -0.008049014
0000b0 b0 fe bb bd 68 0e ac bd d4 2d 31 be 40 49 6c bd
       -0.09179437 -0.08401185 -0.17302638 -0.057687044
0000c0 62 53 16 3e 92 ce d7 3c 1b b1 b4 3d 3d bd f5 3d
       0.14680246 0.026343618 0.08822843 0.11998985
0000d0 03 81 0e 3e eb da 8a 3c 03 22 16 3d 5e 66 b8 bd
       0.13916402 0.016950091 0.03665353 -0.090039
0000e0 5b de 29 3d 3d 22 c4 bd f2 89 11 3e 8f 99 02 be
       0.04147182 -0.09576843 0.14212778 -0.1275389
0000f0 74 e9 19 be b5 a4 c9 bd 73 8c 17 3e 9d 89 88 bc
       -0.15030462 -0.098458685 0.14799671 -0.016667182
000100 e6 ce f5 3d c4 3a 10 3d a0 b3 b4 3c 2a 59 00 be
       0.12002353 0.035212293 0.022058308 -0.12534013
000110 1f e0 8e 3d 32 dd 71 3d e9 51 89 3d 45 21 3d 3e
       0.069763415 0.05904884 0.06705076 0.18469723
000120 df 98 84 3e 78 ca 8a bd 11 1d 9c 3c bf 4c 99 bc
       0.2589788 -0.06776899 0.019056829 -0.018713353
000130 08 1e eb 3c 86 ad d7 3a bd 39 2a 3e 86 23 c4 3b
       0.028700843 0.0016454912 0.16623588 0.00598568
000140 e4 89 4f bd 6f 3b 5d 3d 08 34 1a be 8b 4c ea 3d
       -0.050668612 0.05401176 -0.15058911 0.11440381
000150 b8 84 67 3c 8e 23 d8 bc b2 ab 9c bd a0 da bc 3b
       0.014130764 -0.026384141 -0.07649936 0.005763367
000160 e6 fa af 38 e3 01 06 be e5 8a 81 3c 18 e1 69 3e
       8.391384e-05 -0.13086657 0.0158133 0.22839773
000170 3b 10 96 3d 8e 7b 1c be c3 67 1f 3e 00 32 e5 3c
       0.073273145 -0.15281507 0.15566926 0.027977943
000180 0f f6 88 3c 39 2f 4d 3d 65 fa e2 3c f3 b8 7f 3e
       0.016718892 0.050093863 0.027707288 0.24972896
000190 51 50 a8 bd 60 67 5f 3d e9 7a 85 3d 76 dc 0d be
       -0.08218444 0.054541945 0.06517584 -0.1385363
0001a0 36 8e 98 3c b8 fa 24 bd 81 2a 9b bd 3e 81 a3 bc
       0.018622499 -0.040278167 -0.07576466 -0.019959088
0001b0 47 31 3a 3d ed 53 f0 bd fc 08 a1 3c 50 a6 01 be
       0.04545715 -0.117347576 0.019657604 -0.126611
0001c0 02 83 3c 3e 69 92 15 be 67 2c 21 bd bc 3f 0f be
       0.1840935 -0.14606632 -0.039348986 -0.13989156
0001d0 e3 a2 c5 bd 73 2f 02 3c 32 32 9d bd 9d 25 12 be
       -0.09650209 0.007945883 -0.076755896 -0.14272161
0001e0 06 e3 1f 3e 00 47 a7 bd db 5d fc 3d 05 f5 ed 3d
       0.15613946 -0.08167839 0.12322589 0.116189994
0001f0 f8 9f 5a 3d 2c 20 06 bc 20 65 0b 3e ca 02 84 3d
       0.053375214 -0.008186381 0.13612795 0.064458445
000200 c8 54 02 3d 0a a5 fb 3d 84 78 b5 3d 46 9f 2d 3e
       0.031819135 0.12287338 0.08860877 0.16955289
000210 50 c5 c8 bc a4 4b 5a bc 4f a1 23 3d 8d 89 10 be
       -0.024508148 -0.013323698 0.039948758 -0.14114971
000220 96 58 2d 3c 7f ba 2e be 67 90 c9 3d 95 da e9 bb
       0.010580203 -0.1706333 0.09841996 -0.0071366527
000230 8c c0 26 3e 62 ca c4 3c d3 8f 65 bc 49 17 21 bd
       0.16284388 0.024022285 -0.014011341 -0.039328847
000240 63 43 23 be e6 83 06 3e 0a f8 0f be 9e d4 d0 3e
       -0.15943675 0.13136253 -0.14059463 0.40787214
000250 be 79 e3 bc f4 f6 03 be 09 8a 84 3d c1 11 90 bd
       -0.027768012 -0.12887174 0.064716406 -0.07034636
000260 ff be 4b 3d eb c4 76 bd bf fb 31 3e a2 09 94 3e
       0.049742695 -0.06024639 0.1738119 0.289136
000270 98 68 e2 3d b0 77 73 bd b6 d8 46 3c 59 83 70 3e
       0.11055106 -0.059440315 0.012136629 0.23487605
000280 c9 93 9c bc 50 8f 0c 3e be c6 50 3e 08 4b 71 3e
       -0.019113438 0.13726544 0.20388314 0.23563778
000290 9d db c5 3d d4 41 14 3e 5a cb 1f 3d e8 36 98 bd
       0.096610285 0.14478236 0.03901229 -0.074323475
0002a0 57 2e 21 3c 5c f0 74 3e 05 e9 30 bd ac 59 66 3d
       0.009837708 0.23919815 -0.043190975 0.05623786
0002b0 3e 7c 92 be e2 65 8e bd e0 6f 23 bc 80 8a 73 3a
       -0.28610414 -0.06953026 -0.009975404 0.00092903525
0002c0 78 28 a4 3d 17 f2 18 be 32 76 3c 3d cb 9f 09 3e
       0.08015531 -0.149361 0.046011157 0.13439862
0002d0 59 bb 67 bd 98 7b f9 3d c5 f3 13 3e ba 07 a5 bd
       -0.056575153 0.12181777 0.1444846 -0.08058114
0002e0 ad d5 49 3e ba be 76 3c 5f 4f 72 3e cd 6c 02 bd
       0.19710417 0.015060121 0.2366309 -0.03184204
0002f0 1d b1 da bc d2 ac cd bd f4 66 24 3d 20 b5 59 be
       -0.026695782 -0.100427285 0.040137246 -0.212605
000300 6b 51 39 bd 83 e5 e0 3c ab 6a 15 be 71 ad 4b bd
       -0.04524366 0.02745319 -0.14591472 -0.049725953
000310 a7 67 5f bd cc 3f 2b 3d 7e 7a c6 bc d1 f2 00 bc
       -0.05454221 0.04180889 -0.02422833 -0.007870392
000320 c5 07 f1 bd 33 99 2a 3b 2a a7 84 3d b8 23 ed bc
       -0.1176906 0.0026031255 0.064771965 -0.028947696
000330 3b 1c ce 3d 87 62 04 be 4c 2b b6 3d 36 45 ce 3d
       0.10063978 -0.1292821 0.08894977 0.10071795
000340 a3 7c 24 bd 6e 34 a3 bd dc 49 f0 bc 0d 65 0b be
       -0.040157925 -0.079689845 -0.029332094 -0.13612767
000350 89 8e 1a 3c e0 57 d5 bc 4d c2 ca bd 14 9b e6 bd
       0.009433397 -0.026042879 -0.09900341 -0.112600476
000360 07 f5 a8 bd 87 22 17 3d 78 97 4b 3d 4a 46 51 bd
       -0.0824986 0.036898162 0.049705 -0.051092423
000370 ba 12 df bd a0 61 f4 bc 38 79 f9 bd d8 04 9e bd
       -0.10892244 -0.029831707 -0.12181324 -0.077157676
000380 71 73 b1 b8 15 be 45 be 90 4a 21 bd b6 e0 a5 bd
       -8.46152e-05 -0.19310792 -0.03937775 -0.08099501
000390 25 10 cc bd 9b 96 c9 bd c1 1f 2e 3e 4d 01 b9 3d
       -0.09964017 -0.09843179 0.170043 0.09033451
0003a0 d4 d7 8d bd eb c4 3f bd 67 49 da 3d 36 13 96 bd
       -0.069259316 -0.046818655 0.10658532 -0.07327883
0003b0 2b 4b 37 3e dc dd c2 3d ac e3 fa bd 74 ec 65 bd
       0.17899768 0.095149726 -0.12250456 -0.056133702
0003c0 1a b7 57 ba d9 66 c3 3d f5 fc e2 ba 2b d1 0c 3e
       -0.00082288834 0.09541101 -0.0017317819 0.13751666
0003d0 e9 b9 35 ba 6c 50 ab bc 82 d0 56 bd 5b 4e 63 3c
       -0.0006932305 -0.020912372 -0.052444942 0.013873662
0003e0 c9 2b 90 bc 43 ed 24 bd 44 84 40 3d 4c ad 7b bc
       -0.017599003 -0.040265333 0.04700114 -0.015361141
0003f0 e0 a0 20 be d7 21 02 3e 2b 1e f0 3c b2 d9 3a be
       -0.15686369 0.12708221 0.02931126 -0.18247107

gru.bias_ih_l0 f4 [192]
000000 65 3c d3 bc 15 cb 29 be c9 94 7e 3d 41 fb 87 3d
       -0.025785634 -0.16581376 0.06215361 0.0663972
000010 5e 82 a2 3c bb e0 89 bd c7 d7 fb 3d 7a 6b 4f bd
       0.019837555 -0.06732317 0.12297016 -0.050639607
000020 de ff 83 3d 6e 44 78 bc 17 fc 06 3e 0e 84 2e be
       0.06445287 -0.015153034 0.13182102 -0.17042562
000030 84 1d f5 bc b3 87 01 be af 58 94 bd 8c 02 7e 3d
       -0.0299213 -0.12649421 -0.072434776 0.062014148
000040 de 03 b2 bd b0 60 6b bd ee be e0 bd 8b df bc 3c
       -0.08692144 -0.057465255 -0.10973917 0.023055812
000050 e5 4f fa bd c5 3c dd bd ad 9f dc bd 44 4e 9c bd
       -0.1222227 -0.108026065 -0.10772643 -0.076321155
000060 5e d7 88 bd 23 24 d5 bd 1d da a5 3d 54 ec 0b be
       -0.06681703 -0.10407283 0.080982424 -0.13664371
000070 7b fe d1 3d 39 cf ae 3c e0 6b 86 bc e8 4f 8c bd
       0.102536164 0.021339046 -0.01640886 -0.068511784
000080 58 af 49 3d 7c 70 5c 3d e6 53 f9 bd a4 37 62 bd
       0.049239486 0.05381821 -0.121742055 -0.055228844
000090 8b 50 b7 3d 1c 22 87 3d f1 5a fb 3c 25 aa 22 3d
       0.08950909 0.06598303 0.030683013 0.039713044
0000a0 4c 7a 10 ba 5d dc 0c bd 3d 70 ea 3d 7d 01 b4 3d
       -0.0005511388 -0.034389842 0.11447189 0.08789346
0000b0 1c 69 03 be 1b f7 d3 3d eb 15 c8 3d 74 ab cc 3d
       -0.12833065 0.10349866 0.097698055 0.099936396
0000c0 33 5a 98 bc 01 04 8c bd 57 eb f9 bd 20 27 f0 3d
       -0.018597698 -0.06836701 -0.12203091 0.117262125
0000d0 04 6d 3f bc 7b a3 ff 3b d8 0c 1e 3d 55 52 b4 bd
       -0.011683706 0.007801471 0.038586468 -0.08804766
0000e0 5d ed 09 bd ec 1a dd 3b ca c5 08 bd 85 5e 49 bc
       -0.033673633 0.006747594 -0.03339175 -0.012290602
0000f0 77 3b fa bd 80 2c b5 bc 38 5e 35 3e 2d 4c d0 bd
       -0.12218373 -0.022115946 0.17711723 -0.101707794
000100 2b e9 9b be f9 04 18 bd 51 a3 0c 3c da b0 79 bd
       -0.3045133 -0.037114117 0.00858386 -0.060959674
000110 f9 1f 52 bd c0 30 20 be 6a 90 59 be 2a bf 84 bd
       -0.051300023 -0.15643597 -0.21246496 -0.06481774
000120 e9 f2 77 be 16 32 50 be d2 e6 53 be f8 f2 d9 be
       -0.24213757 -0.20331606 -0.2069352 -0.42568183
000130 b1 37 6d bd 7b c0 35 3a cd 68 50 be 22 2c 77 3b
       -0.05791444 0.0006933284 -0.20352478 0.0037715514
000140 5f 61 83 39 20 ab 00 be d2 26 86 be f6 a7 02 be
       0.00025058814 -0.12565279 -0.26201493 -0.12759385
000150 0d 3d 34 be 1c f2 f5 bd 4a 36 70 be 57 89 90 be
       -0.17601414 -0.12009069 -0.2345821 -0.28229782
000160 e0 a4 43 be 7d c7 25 be 0d db 8c be 3c 24 af bd
       -0.19105864 -0.1618938 -0.27510872 -0.08551833
000170 9c a1 5c be b7 62 78 bd d2 a9 3f be 89 4d 4b be
       -0.21546024 -0.060641017 -0.18717125 -0.19853796
000180 db 88 dd bd fa 4a 92 be 3e 47 6d be 52 38 af be
       -0.10817119 -0.28572828 -0.23171708 -0.34222656
000190 1c 49 f3 bd 70 55 42 be 18 d9 4b be 9e 02 bc be
       -0.11879179 -0.18977904 -0.19907033 -0.36720747
0001a0 02 f6 3a be b3 26 cb bd 3f 12 d5 bd 27 43 ca be
       -0.18257907 -0.09919491 -0.10403871 -0.39504358
0001b0 17 b5 4e be c6 2c 70 be 52 37 97 be 4a 0c 16 bd
       -0.20186268 -0.2345458 -0.29534394 -0.036632814
0001c0 04 8a 20 be df 07 b8 be 97 c2 67 be 7c 93 ee bb
       -0.15677649 -0.35943505 -0.22632824 -0.007280765
0001d0 e4 18 88 be 5e b8 21 be d0 6b 03 be 39 86 71 be
       -0.2658149 -0.15792987 -0.12834096 -0.23586358
0001e0 a3 b5 ad bd ed 6a 37 be 28 31 d7 bd 21 1d 78 be
       -0.0848191 -0.17911883 -0.10507423 -0.24229862
0001f0 05 61 bc be 28 20 97 be d6 7a d9 bd 95 e4 a5 bd
       -0.3679277 -0.2951672 -0.10619132 -0.08100239
000200 47 1a 94 3d e0 9c 3e bc 5f e1 f0 3d a2 38 2f bd
       0.072315745 -0.011634082 0.11761736 -0.04277862
000210 50 99 06 be 58 fe f8 bd f9 6d 0a bd 3c 2f 03 3e
       -0.13144422 -0.12157887 -0.033796284 0.12810987
000220 c7 74 22 bd 11 a0 ae bc 33 05 bc bd f4 83 48 bd
       -0.03966215 -0.02131656 -0.09180679 -0.048953965
000230 ae 81 b9 3d 57 60 a2 bc 2d 50 b0 3d df 1c bd bd
       0.090579376 -0.019821329 0.08609042 -0.09234022
000240 4d 3e 7b bd b3 00 ce bc 2d e6 c4 3c 91 b3 a7 3d
       -0.06133871 -0.025146818 0.024035538 0.081885464
000250 e1 a5 af 3d 7a 1e 38 3d 66 7f ac 3d 65 8f de bd
       0.08576561 0.04495094 0.08422737 -0.10867194
000260 35 1a 0b be f0 1d dd 3d e5 c4 82 bd e1 51 1b 3d
       -0.13584216 0.10796726 -0.06385211 0.037919883
000270 2e 9c c0 bd ad 07 74 bd fb 63 8e 3d 04 95 c8 3d
       -0.09404789 -0.059577633 0.069526635 0.097940475
000280 f4 26 4d 3d 8c a4 d1 3d e5 36 04 be c9 41 c7 bc
       0.050085977 0.10236463 -0.12911566 -0.024323361
000290 33 75 6e 3c 08 c7 f1 bd d1 23 f8 3d 7d 85 d4 bd
       0.01455431 -0.1180554 0.121162064 -0.10377023
0002a0 df 9c cc 3d 0c 75 92 bd fe 3a f1 ba ff e2 cc 3c
       0.09990858 -0.07151231 -0.0018404422 0.025010584
0002b0 8d 41 1b 3d c3 6b bd 3d 61 cd 7e 3d de 17 41 3e
       0.03790431 0.092490695 0.062207583 0.18856761
0002c0 c6 89 00 be 05 94 e6 3d 64 6f 21 be a5 ea a1 bd
       -0.12552556 0.11258701 -0.15765148 -0.07906083
0002d0 ff 46 f1 3d b4 36 0b 3e f8 4a d9 3d 11 85 86 3d
       0.117811196 0.13595086 0.10610002 0.06568349
0002e0 dc 88 6f 3d c5 6b 5c 3e 53 f7 8a bd 99 0d fe 3c
       0.05848013 0.21525486 -0.067854546 0.031012343
0002f0 0b 9a a2 3d 6c 1a a7 3c 64 2a 13 bc c8 6e 2e 3e
       0.079395376 0.020398341 -0.008982275 0.17034447

gru.bias_hh_l0 f4 [192]
000000 41 5a 81 bd 7f dd 4f be 71 db 92 3c ef 6c c7 bd
       -0.06316043 -0.20299338 0.017926903 -0.09737574
000010 d7 85 16 3b 5e 2b 8f bd 8d 34 05 3e 9d 6e 9b bd
       0.0022967958 -0.069906935 0.13008328 -0.07589457
000020 16 43 04 3d e6 ed 44 bd 68 a7 ea 3d c4 65 ec bc
       0.03229054 -0.04807844 0.114577115 -0.02885712
000030 70 70 67 bd 3b 29 fa bc 6c a4 48 3c ff 8f 05 bb
       -0.056503713 -0.030537238 0.0122462325 -0.0020380018
000040 42 fd cf bc ab 7f 0b bc 6d c9 b3 3b 33 81 4a 3c
       -0.025389317 -0.008514325 0.0054866583 0.012359905
000050 de 64 71 3c 62 07 c6 3d 42 78 50 3d 9f b0 e9 bd
       0.014733521 0.09669377 0.050895937 -0.11410641
000060 b4 c8 2e bd f2 21 8c 3d f3 ce f2 3d 80 5b 90 bd
       -0.042671874 0.06842412 0.11855879 -0.07048702
000070 39 f5 04 3e 24 ae 55 3d fc e5 b8 3d 75 8c 58 3d
       0.1298417 0.052168027 0.09028241 0.052868325
000080 21 ee 81 bc f9 f7 81 3d 1e c6 c8 3c 03 a7 8c 3d
       -0.015860619 0.06346125 0.024508532 0.068677925
000090 31 c1 bd bc 2e a4 e3 bd 77 40 bb bc a1 b8 d5 3d
       -0.02316341 -0.11115299 -0.022857888 0.10435606
0000a0 1d 29 28 bd e1 c0 4a bd 10 7e ac 3d 8f 90 b6 bd
       -0.041054834 -0.04950035 0.08422482 -0.08914291
0000b0 a5 8f 57 bd 0d 8c 70 bd 82 6f fd 3d 26 85 7f bd
       -0.052627224 -0.058727313 0.12374784 -0.06238284
0000c0 9b a0 be bd fb 60 2d bd 22 72 82 bd b5 19 71 3d
       -0.09307977 -0.042328816 -0.06369425 0.058862407
0000d0 4f 57 83 bd 99 9f 9b ba 01 37 ad bd 18 86 a9 bd
       -0.06413137 -0.0011873125 -0.08457757 -0.082775295
0000e0 d1 2f 3f 3d 9c 45 a8 bc a6 f9 39 bd be ce 08 3d
       0.04667646 -0.020541005 -0.0454041 0.03340029
0000f0 0d 71 c9 bd b1 dd d5 bd d8 7e d5 3d f1 fd d4 bc
       -0.09836016 -0.10442675 0.10424584 -0.025999995
000100 35 5f 15 be 47 34 91 bd 96 0b 13 bd d2 ad 77 be
       -0.145871 -0.07090049 -0.03589972 -0.24187401
000110 66 e7 a7 bd 80 aa 65 be b3 c7 ee bd 65 4b 59 bb
       -0.081984326 -0.22428322 -0.11659183 -0.003315651
000120 b2 f7 25 be b8 70 43 be 13 5c 1f be bd 0d 9b be
       -0.1620777 -0.19085968 -0.15562467 -0.3028392
000130 da 1a 42 bd e6 fa b9 bd f3 5b 2b bd d2 a7 30 be
       -0.04738889 -0.09081058 -0.041835736 -0.17251518
000140 32 26 80 3d 99 d5 9d bd 1f 37 b9 be 0f 45 5c be
       0.06257285 -0.07706756 -0.36174867 -0.21510719
000150 26 ae 81 bd e0 ae c1 3a ed 8c 77 bd 04 b6 fa bd
       -0.06332044 0.0014776848 -0.06043713 -0.12241748
000160 46 18 8c be 94 82 98 bd 55 8b 2a be 9b 24 74 be
       -0.2736227 -0.07446781 -0.16654713 -0.23842089
000170 c2 0d 2b be 44 66 fd bc 83 b1 5a be fd da a2 bc
       -0.16704467 -0.030932553 -0.21356778 -0.019879812
000180 5c 4d 50 be 4a 34 c9 bd de f4 83 bd 3c 00 60 be
       -0.2034201 -0.098244265 -0.06443189 -0.2187509
000190 50 5e 5c be f1 56 a3 bd 63 04 01 be 1e 89 39 be
       -0.21520352 -0.07975567 -0.1259933 -0.18118712
0001a0 65 af f1 bd 02 5b cc bc 2a 5d a3 be b8 39 84 be
       -0.11801032 -0.02494574 -0.31907016 -0.25825286
0001b0 4e 60 c6 be f6 13 2b be 90 d0 63 be 94 4c 29 be
       -0.3874535 -0.16706833 -0.22247529 -0.16533118
0001c0 34 8c 37 be 10 8d 1d be 5f a2 0f be 85 5d 14 be
       -0.17924577 -0.15385842 -0.14026783 -0.144888
0001d0 88 39 8b be 33 58 cc bd f5 d4 65 be 1a 6d 93 be
       -0.2719233 -0.0997776 -0.22444518 -0.28794175
0001e0 1a 02 67 be 92 13 fc bd e2 56 97 be 74 6e 40 be
       -0.22559395 -0.1230842 -0.29558474 -0.18792135
0001f0 f1 56 54 be 90 33 ad be f5 a9 15 be 1e 1c 5f be
       -0.2073629 -0.33828402 -0.14615615 -0.2178807
000200 24 04 7f bd 1f 32 18 3e 34 ea 11 3e e1 bb 61 3d
       -0.06225981 0.1486287 0.14249498 0.055110816
000210 f2 b8 14 be df a4 28 3e b9 ab ef 3d d4 98 78 3b
       -0.14523676 0.16469143 0.11702675 0.003793289
000220 4e 33 7d 3d 29 00 f0 bc 63 d0 72 be 50 2c 16 3d
       0.061816506 -0.029296951 -0.23712306 0.036663353
000230 da 9d 30 3d 7d 5c 28 bd e9 df 1c bd 04 2d 02 be
       0.04311929 -0.04110383 -0.038299475 -0.12712485
000240 56 70 19 3e 3f 1b 34 bd f9 4e 0d bd 02 0f 27 bd
       0.14984259 -0.043971296 -0.034499142 -0.040785797
000250 03 1c 89 bd 3f 8b 94 3d da 49 62 3e 87 c0 f5 3d
       -0.06694796 0.072531216 0.22098485 0.11999612
000260 21 9b 5f 3e 0c 87 13 be 25 7c 29 3e ed 62 ac 3c
       0.2183652 -0.14406985 0.16551264 0.021043265
000270 0a 99 97 3d f8 27 69 3c 7a 75 0e 3e c0 ec 80 bd
       0.07402237 0.014230721 0.13912001 -0.062951565
000280 94 47 38 3e 66 58 1b 3d 6b 52 f5 3d 74 1d 6a 3d
       0.17996055 0.0379261 0.119786106 0.057156995
000290 80 a3 50 3e 30 c7 1d bb 4e eb 35 be 9d 06 05 3e
       0.2037487 -0.0024075024 -0.17765543 0.12990804
0002a0 11 0e 5e 3e 82 13 ce 3d 68 ef 9c ba 6c 3d b7 bd
       0.21685053 0.100623146 -0.0011973204 -0.08947262
0002b0 76 18 18 3c bc b2 74 3d 41 54 ac 3d ec 71 80 bc
       0.009283176 0.059740767 0.08414508 -0.015679322
0002c0 07 47 34 3e 53 f0 39 be a1 f9 2a 3e a3 d8 1a bd
       0.1760522 -0.18158083 0.16696788 -0.037804257
0002d0 8a 9e a1 3d 48 06 2b 3e 8d 4b 08 3e f8 c1 99 3e
       0.07891567 0.16701615 0.1331007 0.300308
0002e0 c7 8d 7d 3c 66 ee 5e 3e 6e 9a 76 bc d1 96 38 3e
       0.015475697 0.2177063 -0.015051467 0.18026282
0002f0 c5 3a e9 3b c4 15 14 3e 2c 30 d2 bd 7b 16 22 3e
       0.0071176016 0.14461428 -0.10263094 0.15828888

fc0.weight f4 [32, 64]
000000 fe b5 9b bc 96 56 30 3e 10 ff 46 3d 77 ed 98 3e
       -0.01900768 0.1722053 0.04858309 0.2986867
000010 f0 73 0d 3d 3d 85 5b 3d 11 13 ee 3e c4 9e 9d 3d
       0.034534395 0.053593863 0.46498922 0.07696298
000020 af 91 e1 bd b1 87 d6 3e 3b af 8a 3d 88 8f 45 3e
       -0.11014115 0.419004 0.06771704 0.19293034
000030 a1 ff 5c 3d 9e 78 f7 bd 54 5a 82 bd 27 72 19 3d
       0.053954724 -0.12083553 -0.06364885 0.03746238
000040 ce 64 de 3e 7b 6b 10 be 29 50 2a 3f 4e c7 50 bd
       0.43436283 -0.141035 0.66528565 -0.05097132
000050 2f 16 01 3f 3e 21 b0 3e 28 55 17 bd 41 d0 ad 3e
       0.50424474 0.34400362 -0.036946446 0.33947948
000060 8a b8 27 3e 6e 5d fb 3d c8 1d ef 3e fe 16 1c 3e
       0.1637899 0.1227368 0.4670241 0.15243146
000070 36 f6 3a bd d1 bd a2 3e c0 dc 01 bf 2b f9 32 3a
       -0.04564496 0.31785443 -0.5072746 0.000682729
000080 42 6e cd 3d e4 5e 1f be 9d 96 18 3f 14 d8 ee 3e
       0.10030796 -0.15563542 0.5960482 0.4664923
000090 46 0d a0 3e b6 45 7f be 07 59 cf 3d 09 f7 d1 3e
       0.31260127 -0.24928936 0.101244025 0.41008785
0000a0 53 44 91 bd 37 b3 b5 3e 64 44 26 3d a2 eb 9e 3e
       -0.0709311 0.35488293 0.040592566 0.3103915
0000b0 37 98 0a 3f c2 85 f4 3e f9 d3 69 bd 76 45 9e bd
       0.5413851 0.477583 -0.05708692 -0.07728092
0000c0 3b fd 16 3e d8 fe 60 3e 5e 3a d1 3d 33 11 95 be
       0.14745037 0.21972215 0.10216211 -0.29114684
0000d0 49 66 fa 3d 09 a3 c5 3d 69 06 1d 3e 92 72 d9 3d
       0.122265406 0.09650237 0.15334477 0.10617556
0000e0 ba b6 f8 3b b2 84 a0 3d 93 56 2e 3f 88 b3 c1 be
       0.007590142 0.078378096 0.6810085 -0.37832284
0000f0 6b d2 7e 3e 7e de bf bd a3 66 1e bd 5d dc c2 bc
       0.24884956 -0.09368609 -0.0386721 -0.023786718
000100 a9 61 1e 3d 6d 7c 06 3e 83 97 42 be 18 6e 46 3e
       0.038667355 0.13133402 -0.1900311 0.19377935
000110 2b cc 42 3e d0 6b 32 3e 7e f0 db 3e 5e c6 44 bd
       0.19023196 0.1742394 0.42956918 -0.04804074
000120 8b c5 9b be 28 23 41 bc ed 21 47 be d0 6b 40 3e
       -0.3042415 -0.011788167 -0.19446535 0.18791127
000130 26 98 42 bc d2 07 c4 bd fb 46 da 3d ea 8b bb bb
       -0.011877095 -0.09571804 0.1065807 -0.005723466
000140 04 ee 55 3e 63 22 ce bd 03 d5 12 3f b5 b8 cc bd
       0.20891577 -0.100651525 0.5735628 -0.099961676
000150 65 3f 05 3f f3 c5 86 be 6e 71 3d 3e 7c 37 ca be
       0.5204986 -0.26322898 0.18500301 -0.39495456
000160 c5 12 49 3e 8d af ff bd 74 fb b8 3e ba d6 43 3e
       0.19636066 -0.124846555 0.36129344 0.1912488
000170 ed 4a 8c be db 87 69 be b9 6e 12 bf a8 1c 0b be
       -0.27400914 -0.22805731 -0.572002 -0.1358515
000180 25 18 c5 3d 92 4d a6 be e9 2f 16 3f c5 4f fa 3d
       0.09623746 -0.32481056 0.58666855 0.12222246
000190 73 2c 91 3e 3e a5 1c be 50 fa 01 bd 01 a6 d1 3e
       0.28354225 -0.1529741 -0.031732857 0.40946963
0001a0 ad 14 3a bd 08 2a aa 3e 57 a3 51 3e 4c 86 51 bd
       -0.045429874 0.33235192 0.20472465 -0.051153466
0001b0 ea 02 30 3f e2 e1 ac 3e 6b 06 a5 bc 8c 5a e9 bd
       0.68754447 0.33766085 -0.020144662 -0.113942236
0001c0 f5 b0 c1 3d 45 eb 0e 3e c3 92 85 3d cf 59 6b be
       0.0945758 0.13956936 0.06522133 -0.22983478
0001d0 0b f8 65 3e e0 7f 04 3e 3e d4 32 bd 32 e5 85 3e
       0.22457902 0.12939405 -0.04365944 0.26151425
0001e0 e9 54 76 be 93 5c 90 3e 97 aa 0e 3f b7 50 b8 be
       -0.24055828 0.2819563 0.5572905 -0.3599908
0001f0 75 8f 56 bf 54 66 2e 3e c2 ce 53 3a 29 8a 98 bd
       -0.8381265 0.17031223 0.00080798205 -0.07448227
000200 4f ce ab 3c 7c 55 9b 3c b1 a9 eb 3a a1 25 fa 3d
       0.020972399 0.01896166 0.0017979649 0.122142084
000210 47 ca 71 3d b6 3c 50 3e 59 4e e4 3e fd 3f 20 3d
       0.059030797 0.2033566 0.44591025 0.039123524
000220 62 94 4e be 16 40 b3 3e 54 c3 c7 3d 7b 4c 24 3e
       -0.20173791 0.3500983 0.09754053 0.160448
000230 54 a1 4f bd 1f 02 ef be 2f 32 29 3e 2c cb dc bc
       -0.050690964 -0.46681306 0.1652305 -0.026952349
000240 11 b9 87 3e c3 34 ad bd 2d 10 52 3f 98 6a fc bd
       0.26508382 -0.08457329 0.8205593 -0.12325019
000250 f8 af e0 3e de 91 67 3e be 6d 5d 3d ff f1 8f bd
       0.43884254 0.22614238 0.054059736 -0.07028579
000260 34 bc 4d 3e ff 53 3d bd de 84 18 3e b4 cb 5f 3e
       0.20091325 -0.046222683 0.14894435 0.2185505
000270 c4 f1 27 be 88 d4 03 bf 36 ac b2 be 6c 79 30 be
       -0.1640082 -0.5149617 -0.34897012 -0.17233819
000280 81 af 85 3d b9 00 83 be 55 39 d1 3e 34 f0 35 3e
       0.06527615 -0.2558649 0.40864053 0.17767411
000290 d3 2e 80 3e c0 e3 43 be 95 6a d7 3b 81 fa ec 3e
       0.25035724 -0.19129848 0.006573985 0.4628487
0002a0 e6 ad 46 3e c0 2f 83 3d 61 a2 83 3e 67 92 8d 3e
       0.19402274 0.06405592 0.25709823 0.2765076
0002b0 3b a4 07 3f be 0f bf 3e b5 a9 cf bd 7b 87 01 bd
       0.5298497 0.37316698 -0.10139791 -0.031623345
0002c0 b6 9f 9d 3d 73 1c c2 3e 92 fe 02 3d ce 03 be be
       0.07696478 0.3791233 0.03198106 -0.37112278
0002d0 4a 77 17 3e 87 db 02 3e 17 7d 9d 3d cb 5e 13 3c
       0.14791599 0.12779056 0.076898746 0.008994768
0002e0 c6 80 37 be 96 83 a1 3d 78 42 34 3e b0 04 56 be
       -0.17920217 0.07886426 0.17603481 -0.20900226
0002f0 50 db f6 be f5 ee f3 3d 8c 15 d1 bc fe fc e8 bd
       -0.48214197 0.11910812 -0.02552297 -0.113763794
000300 16 12 97 be cc 4d e7 3d e8 84 72 bc c2 ae 9c 3e
       -0.29505986 0.112941355 -0.014802195 0.3060208
000310 9e 85 0a bd 25 af a1 3d 29 9e f8 3e f3 d5 c0 bc
       -0.033818834 0.07894734 0.48558167 -0.023539519
000320 de 1e e0 3d 2f e0 0c 3e 5d 54 86 be 39 46 09 3e
       0.109433874 0.13757394 -0.2623624 0.13405694
000330 ff 19 cf 3d 7e f4 eb bd 0d 01 9d bd 68 1a 3b be
       0.1011238 -0.115212426 -0.07666216 -0.18271792
000340 e2 df ee 3e b7 e1 c8 bd d8 49 5a 3e 58 7e bf 3a
       0.46655184 -0.09808677 0.21317232 0.0014609797
000350 ac fb a4 3d 2d 18 93 3e c4 1c 95 3d df c7 c1 3e
       0.08055815 0.28729382 0.07280877 0.37847802
000360 68 cf ab bd 2e c8 92 bf ff 28 cf 3e 3f ae d4 3d
       -0.08389169 -1.146734 0.40460965 0.10384797
000370 8e 78 5c be 57 ef 21 3e 2a d1 93 be 52 89 83 3e
       -0.21530363 0.15813957 -0.28870517 0.25690705
000380 2b 6c 4b bc 80 27 a7 3d 00 1b 6c 3e db 9f 0e 3f
       -0.012415926 0.08161831 0.23057175 0.5571267
000390 cb e0 5e 3e 49 e9 be be 7f b4 45 be 24 5e 7b 3d
       0.21765439 -0.37287357 -0.19307135 0.061369076
0003a0 dc b5 69 3d af 9f cb 3e 2a a6 2e 3d 0d df dc 3e
       0.0570582 0.39770266 0.042638935 0.43138924
0003b0 38 32 06 3e 18 1f f9 3e d4 4d 1e 3d a0 52 d8 bd
       0.13105094 0.48656535 0.03864844 -0.105626345
0003c0 ab b3 4c 3e 82 4e aa bf 80 9e 18 3c 64 f5 a0 be
       0.19990413 -1.3305209 0.009315133 -0.31437218
0003d0 4e e3 45 bd 75 f5 4f 3e 55 21 e2 3d a4 4d 14 3e
       -0.048312478 0.20308478 0.11041514 0.14482743
0003e0 73 5f 9b 3d ab 93 58 3d 37 a5 0b 3f 07 1e b4 be
       0.07586565 0.052875202 0.5454897 -0.3517916
0003f0 5c d9 3d 3e b1 74 f2 bc ba cc 69 3c c7 22 a1 bc
       0.18539947 -0.029596658 0.014270002 -0.019669903

fc0.bias f4 [32]
000000 89 b5 99 3d 83 13 95 bd 83 0c e3 3d 4a 6f 33 3e
       0.07505328 -0.07279112 0.11086371 0.17522922
000010 55 4b 21 3e c2 df a5 bc e2 a7 39 3f c4 b1 2c 3f
       0.15751393 -0.020248298 0.72521794 0.6745875
000020 d6 9d 2d 3e 30 ab 45 3e 26 71 0e 3e ca 76 24 3f
       0.16954741 0.19303584 0.1391035 0.6424376
000030 ac 20 9a 3d 08 53 05 3f c6 ec 87 3c 20 26 87 bc
       0.07525763 0.5207982 0.016592395 -0.016497672
000040 6b 64 22 3e 3e e5 c1 3d 18 b1 59 3d cc 83 2f 3e
       0.15858619 0.094675526 0.053147405 0.1714012
000050 06 d0 c7 3d f4 b6 2e 3d a8 c6 05 3e 73 e6 03 3e
       0.09756474 0.042654946 0.13064063 0.12880878
000060 b2 01 9a 3d 63 27 21 3e 63 41 44 3f 6e bc 6f 3d
       0.075198546 0.15737681 0.7666227 0.05852931
000070 d4 cb 2c 3f 69 6b 2f 3f 37 3e 0c 3e e2 70 05 3e
       0.6749852 0.6852327 0.13695608 0.13031343

fc1.weight f4 [1, 32]
000000 7b d5 61 bf 13 09 81 bf 80 f0 51 bf 15 b9 66 bf
       -0.8821637 -1.0080894 -0.820076 -0.9012616
000010 f4 f2 ee 3f fc 63 76 bf aa b8 66 3f dd 3c 67 3f
       1.8667893 -0.96246314 0.90125525 0.90327245
000020 6a 64 64 bf 01 16 5c bf da 05 ce 3f 88 e5 6c 3f
       -0.8921572 -0.85971075 1.6095536 0.92537737
000030 19 22 4f bf 0b 86 75 3f 65 b3 59 bf 16 17 de 3f
       -0.80911404 0.9590766 -0.8503936 1.7350795
000040 19 61 60 bf f4 5c 50 bf 35 c7 3f bf ab 3d 83 bf
       -0.8764816 -0.81391835 -0.7491334 -1.0253195
000050 34 94 64 bf b0 9f 44 bf d5 bc f1 3f a4 e1 97 bf
       -0.8928864 -0.76806164 1.8885752 -1.1865735
000060 c6 4b 79 bf 00 b4 56 bf e7 74 7a 3f 4c 37 8a bf
       -0.97381246 -0.8386841 0.9783463 -1.0798125
000070 5f 16 5e 3f 8d de 82 3f 88 64 77 bf ae 2b ec 3f
       0.86752886 1.0224167 -0.96637774 1.845083
