model/model_checkpoints/GRU_epoch_1500_loss_3.401.pt (torch, 313845 bytes, 16 tensors)

conv0.weight f4 [2, 2, 1, 3, 3]
000000 5f 8b e0 bd df 64 84 3e 8b 22 e4 3d b1 a5 57 3d
       -0.10964083 0.2585821 0.11139401 0.05264825
000010 3a 40 0a 3e 79 00 bc 3d 11 86 bc bd bc 0b 9b 3e
       0.13501063 0.09179778 -0.09205259 0.3028239
000020 76 1c 39 3d bb 6f 50 bc a1 6f 62 be 28 a6 05 3e
       0.045193158 -0.012721951 -0.22112896 0.13051665
000030 5d f9 31 be 22 e7 cb 3d 04 14 cf bd 24 d9 04 3d
       -0.17380281 0.099561945 -0.101112396 0.032433644
000040 3a 2a 0b be d2 8a b6 bb 1a 0a 71 3e ff d0 ef 3e
       -0.13590327 -0.005570748 0.2353901 0.4683914
000050 9e 4a 2e be d8 2c 9f 3a 1c 23 f1 3d dc 56 01 be
       -0.17020652 0.0012144102 0.11774275 -0.1263079
000060 48 1b 21 3e 95 bf 05 3d 8b 6c 35 3e ae e8 a7 bd
       0.15733063 0.03265341 0.17717187 -0.08198677
000070 39 3f fb bd 3a b1 a8 bc 1f 74 ba bd bf b4 85 3b
       -0.12267918 -0.02059232 -0.091041796 0.0040803845
000080 4e 48 44 3a 01 ea bd 3b 14 33 ff 3c 7f 07 9e bb
       0.0007487581 0.0057957177 0.031152286 -0.004822671

conv0.bias f4 [2]
000000 ae 24 57 be 24 92 00 3e
       -0.21010086 0.12555748

conv1.weight f4 [2, 2, 1, 3, 3]
000000 34 de ee bd 14 6b 22 3e 14 b2 03 bd ee 80 bf bd
       -0.11663476 0.1586116 -0.03215225 -0.09350763
000010 dd b6 53 3e 26 a8 d6 bd 0e 1a 27 3d 4d 03 23 bd
       0.20675226 -0.104812905 0.040796332 -0.03979807
000020 35 61 d6 3d 8c 31 e9 bd 3f 3c 4d 3e 5b 46 ea 3d
       0.104677595 -0.113864034 0.20042513 0.114392005
000030 8a 6d 5d bd 32 db 6d be 10 c2 4b 3e 6a 92 73 be
       -0.054059543 -0.23228148 0.19898248 -0.23786321
000040 e5 72 65 3d 4f 9c 96 bc 1f d0 22 be 88 ca 20 3e
       0.056017775 -0.01838508 -0.15899704 0.1570226
000050 d7 d3 b6 3d 67 38 3c be e9 2c a5 3d 71 34 e8 bd
       0.08927124 -0.18380891 0.080652066 -0.113381274
000060 b2 78 b2 3d 36 ff 79 3d 81 f5 a3 3d cd 93 ac bd
       0.08714427 0.061034404 0.080058105 -0.08426628
000070 7a b5 03 3e 7f f1 1f 3e f7 17 6a 3c 71 52 83 bc
       0.12862197 0.15619467 0.01428794 -0.016030522
000080 c2 d2 df bc 04 4b 5e be 90 d9 fa bd 41 36 2b 3e
       -0.027322177 -0.21708304 -0.12248528 0.16719915

conv1.bias f4 [2]
000000 43 a7 51 be 00 8a 73 be
       -0.20473962 -0.23783112

norm.weight f4 [2]
000000 96 7c ff 3f 9b 8d 02 40
       1.9959896 2.039893

norm.bias f4 [2]
000000 ed d8 a3 bd eb 69 a3 bd
       -0.0800036 -0.079791866

norm.running_mean f4 [2]
000000 55 f7 b3 bf 52 06 0a c0
       -1.4059855 -2.1566358

norm.running_var f4 [2]
000000 a8 62 07 47 2b 35 09 47
       34658.656 35125.168

feature_conv.weight f4 [1, 2, 1, 1, 1]
000000 b8 bc 7e bf c4 61 7f bf
       -0.9950671 -0.99758554

gru.weight_ih_l0 f4 [384, 49]
000000 6b de 4f bd 68 0d d8 bd d1 bc 52 be e6 f3 5e be
       -0.050749224 -0.10549432 -0.2057984 -0.21772727
000010 2d 80 cd bd 7f 48 64 bd 83 c0 e1 bd cf 0e ff bc
       -0.10034213 -0.0557332 -0.11023047 -0.031134991
000020 c5 a9 fd bc 36 0a d2 bd e5 d0 42 be 32 0d fd bd
       -0.030964741 -0.10255854 -0.19025 -0.123560324
000030 58 04 88 bd 9f b4 50 be dc 56 5e 3d 6e 34 6a 3c
       -0.066414535 -0.20381401 0.054282054 0.014294727
000040 5c 28 21 bd be d0 36 be 64 f1 3d be 0a 39 08 be
       -0.03934513 -0.17853066 -0.18549114 -0.13303009
000050 76 c1 e8 bd f4 a4 aa 3d ed e9 26 3d ad 8f bf bd
       -0.11365025 0.083322436 0.040750433 -0.09353576
000060 72 f7 11 be 7c 62 7b be b9 97 50 be 1b 14 11 bd
       -0.14254549 -0.24549288 -0.20370378 -0.035419565
000070 47 07 0d be 05 ed 69 3d 9c 4b 92 bd e9 88 0c be
       -0.13772307 0.057110805 -0.071433276 -0.13724102
000080 ca 41 5e be fa e9 4a be 27 92 19 be 1b 25 b0 3b
       -0.21704784 -0.19815817 -0.14997159 0.005375517
000090 f3 66 37 ba a0 69 e4 bd 89 d9 32 3d 44 e4 16 be
       -0.00069962366 -0.11152959 0.04366449 -0.14735514
0000a0 55 2e 62 be a9 34 54 be 8e ef cc bd b2 fb 5a be
       -0.22087987 -0.20723213 -0.10006629 -0.21385077
0000b0 fc 61 1b be 43 1a 01 3b 6e 0e e2 bc 75 e4 65 bd
       -0.15174097 0.001969949 -0.027594771 -0.056126077
0000c0 85 4a c8 bd 31 c6 ae 3d 50 33 45 3d 07 d2 81 3c
       -0.097798385 0.08533896 0.04814464 0.01584722
0000d0 83 8a 38 bd 75 00 16 ba f7 50 65 be 3d 8f 21 bd
       -0.04505397 -0.0005722114 -0.22394167 -0.039443243
0000e0 30 c7 4b 3d bd 27 4a 3e 97 f4 f1 bc b2 4e 20 bd
       0.049750507 0.19741721 -0.029535575 -0.03913755
0000f0 ea 24 61 bd c9 a9 4c bd 74 25 1a bc 2e 8e 9c 3d
       -0.054966845 -0.049966607 -0.009408344 0.07644306
000100 78 0b bb 3d ec 04 e6 bc 92 ae 26 3b 88 f7 08 3e
       0.09133047 -0.028078519 0.0025433642 0.13375676
000110 44 47 51 be d6 70 0b be 37 26 1e bc 8e d8 2e 3e
       -0.20437342 -0.13617262 -0.009652666 0.17074797
000120 a0 f5 10 3c bb 2e 99 bc 3b 48 58 3d 7b 01 22 3a
       0.008847624 -0.01869904 0.05280326 0.000618003
000130 92 09 a8 bd 92 a9 99 bd a5 9d 27 3e a2 c4 24 3d
       -0.082049504 -0.07503046 0.1636873 0.040226586
000140 f2 c3 56 3b 2a fd 3c bc 0b 76 3c 3d c7 f9 32 3d
       0.00327706 -0.011534968 0.046011012 0.043695237
000150 bf cd 91 3d af 5d b0 bc 57 7c 55 bd db 50 de 3c
       0.07119321 -0.021529047 -0.052120533 0.027138164
000160 b6 0a 9b bd ae 87 0b bd da 3e 9e 3c b6 7f ca bb
       -0.07570402 -0.03406494 0.01931708 -0.006179775
000170 22 f7 bc 3c b9 ca a2 bd d9 8d bb bc 34 73 59 bc
       0.02306706 -0.079488225 -0.022894787 -0.0132720955
000180 c2 99 e8 bd 22 97 18 be de fe 0b be 5c 8b 04 be
       -0.11357452 -0.14901403 -0.13671443 -0.12943786
000190 5b 87 cc 3d 52 cf b0 bd 34 66 92 bd 37 c2 33 bd
       0.099867545 -0.08633293 -0.071484 -0.04388639
0001a0 d2 c8 d4 bc 03 d9 2d be 0b 4c 7f bd 5d e4 7d bd
       -0.025974665 -0.16977315 -0.06232838 -0.061985362
0001b0 f8 12 aa bb f6 cf d9 bd ab b3 21 3d 5e 25 b7 3d
       -0.0051902495 -0.106353685 0.039477985 0.08942674
0001c0 92 07 4f be f6 6e 49 be 73 cd 6a 3c 4c 14 b7 3d
       -0.20217732 -0.19671234 0.0143312095 0.08939418
0001d0 6f a6 36 be 18 2c 2f bd f6 56 34 bd b4 04 1c be
       -0.17836927 -0.04276666 -0.044028245 -0.15236169
0001e0 60 e9 2a bd 2a 1f 37 3e c3 c3 11 3d 8b 2f 66 bd
       -0.04172647 0.17882982 0.035587084 -0.056197684
0001f0 f7 8d 39 bd b7 dc 53 3c b0 3f 40 be 31 fe 0e be
       -0.045301404 0.0129310405 -0.18774295 -0.13964154
000200 53 ce 54 3e 72 fe 57 3e 8b 7a b1 3d 4b ea ff bd
       0.20781831 0.21093157 0.08665951 -0.1249586
000210 86 05 11 3d 9e de 2b be 59 8d f1 bd 46 b7 df 3d
       0.03540566 -0.1678414 -0.11794538 0.109236285
000220 10 f8 39 3e 25 bd 15 bd cb 71 a3 bd 14 e2 65 3d
       0.18161035 -0.036557335 -0.07980689 0.056123808
000230 36 eb 41 be dd 97 42 be a3 1c 24 be 35 70 5a 3d
       -0.18937382 -0.19003244 -0.16026549 0.053329665
000240 e6 a3 ad bb fa 73 ad 3d 50 45 24 bd a5 e1 b1 bd
       -0.005299079 0.084693864 -0.040105164 -0.086856164
000250 2d fb 02 be 51 38 cd 3d 27 10 1a 3c 68 c2 68 3c
       -0.12791128 0.10020507 0.009403265 0.014206506
000260 bf 51 8a bd f7 d4 78 3d c8 d3 0d be f0 fb e3 3c
       -0.06753873 0.060749974 -0.1385032 0.027830094
000270 82 12 66 bd f2 7d 4b 3d 2b ab 03 3d ae fd d4 bd
       -0.056169994 0.049680658 0.03214566 -0.10399948
000280 4f a2 9a bc 04 92 ac 3d 42 c2 9d bd 64 b4 28 be
       -0.018876223 0.08426288 -0.07703067 -0.16475064
000290 0f c7 ee 3d 9f f2 98 3d 62 95 61 bd e8 78 b7 bc
       0.11659061 0.07468151 -0.055074103 -0.02239652
0002a0 ad 3a c4 3c 7e 0b e0 bd fb 46 fc 3d 6e 35 24 3d
       0.02395376 -0.10939692 0.12318226 0.040090017
0002b0 eb 80 fb bd 74 cb 6e bd 8e f8 20 be 42 f3 2b be
       -0.122804485 -0.058299497 -0.15719816 -0.16792014
0002c0 11 24 6c 3d 76 8a 86 bd 83 ae 2c be 61 b5 20 3e
       0.057651583 -0.06569378 -0.16863446 0.1569419
0002d0 94 6d 19 3d 5a 43 e7 38 2e 7e f6 bd ef f5 c4 bc
       0.037458017 0.000110274836 -0.120357856 -0.024043052
0002e0 54 8b b0 3d 0a 9a 65 bb 44 2d 96 bd 74 d7 a5 bd
       0.08620325 -0.0035034441 -0.073328525 -0.08097735
0002f0 5a d2 7c bd c8 00 06 be 89 d3 34 3b 00 d0 02 3e
       -0.061724044 -0.13086236 0.0027591905 0.12774658
000300 5a 74 b9 bd eb a7 9e bd f3 2d ad 3d 50 7a d5 bd
       -0.090553954 -0.077468716 0.0845603 -0.1042372
000310 d5 3d 9c 3d be 4d 89 3d a8 a0 8a 38 db 36 ca 3c
       0.07628981 0.06704281 6.610277e-05 0.02468436
000320 11 e8 38 3d d8 8e b1 bc 3f 98 12 3c 7e 32 8d 3d
       0.04514319 -0.021674559 0.008947431 0.06894396
000330 b2 93 1c 3d 7d 77 86 bd 61 0c 7a 3c ce 34 a5 bd
       0.03822679 -0.06565759 0.01526174 -0.08066712
000340 4b a0 d8 bd b4 e1 b4 bd bb 14 0d bd c6 06 8e 3d
       -0.105774485 -0.08832112 -0.0344436 0.06934886
000350 32 d4 81 bd e4 55 7f 3d 12 1c 1e 3d eb 77 f8 3c
       -0.06339301 0.06233777 0.03860099 0.030330619
000360 07 8b f4 bd 70 99 37 3e 65 5d 57 3a 8e eb 8a bd
       -0.1194058 0.17929626 0.0008215516 -0.0678321
000370 70 60 d9 3d ba 5d ad 3d b5 ea 3c bd ca 18 99 bc
       0.10614097 0.084651425 -0.04612227 -0.018688578
000380 78 13 82 3d eb 4f d9 3d 40 a7 c4 3d 04 64 87 3d
       0.063513696 0.10610946 0.09602213 0.06610873
000390 b7 89 d5 3d 27 3f d4 bd 44 43 61 bd 54 15 ca 39
       0.10426658 -0.10363608 -0.05499579 0.00038544333
0003a0 30 56 1a bd 08 29 2f 3d a8 c0 0e bd 68 ea 83 3c
       -0.03767985 0.04276374 -0.0348517 0.016102985
0003b0 62 19 65 3d 95 56 dc bd 97 cf 22 bd 53 7c 16 bd
       0.05593241 -0.10758702 -0.039748754 -0.03673966
0003c0 03 c7 59 3d eb 9f b4 3c 37 de 1f 3e a4 2d 00 3d
       0.053168308 0.022048911 0.15612112 0.031293526
0003d0 f7 5c ed bd 7b 26 95 bd 3d 1b 24 3d 25 c0 dc 3d
       -0.11589997 -0.0728273 0.04006504 0.10778836
0003e0 c9 fe bf bd 4b 79 29 bd 3b 11 70 3d 81 1a e2 bd
       -0.09374768 -0.04137544 0.058610182 -0.110402115
0003f0 7a 8b 93 3d 46 89 9a 3c a8 4f 58 bd 53 75 b1 bb
       0.072043374 0.018864285 -0.05281034 -0.0054155975

gru.weight_hh_l0 f4 [384, 128]
000000 16 b4 53 3c ff 16 2e 3e 6d 46 54 3e 9a fa 91 bd
       0.012921354 0.1700096 0.2072999 -0.071278766
000010 cc 3b 47 bd 1b 46 15 3c d2 69 77 3e a1 ca 23 3e
       -0.04864101 0.009110953 0.24161461 0.15995266
000020 4e 89 cd 3c 0f 99 fd bc 7a f3 a0 3e 45 ed 56 3d
       0.025089886 -0.030956773 0.31435758 0.05247237
000030 87 f3 3c bd 40 4e 30 be 9a f2 a7 3a 5e 5e 1f be
       -0.046130683 -0.1721735 0.001281339 -0.15563342
000040 6d b3 37 3e 4f 27 58 3e b7 cf 39 3e 49 9a a4 bd
       0.17939539 0.21108745 0.18145643 -0.0803724
000050 a9 1e 42 be bb bc 92 3d f6 11 03 bd 07 6c bf 3b
       -0.18957008 0.07164904 -0.03199955 0.0058417353
000060 05 68 01 3b a2 e8 00 bd 54 dd 18 be 3e e0 a7 bd
       0.0019745838 -0.031471856 -0.1492818 -0.08197068
000070 f1 70 15 be 5b 87 bb 3d ca 09 27 3e 6f e8 71 3e
       -0.14593865 0.091566764 0.16312328 0.23623823
000080 dd 9b 59 bd 18 28 25 3e 2a 41 16 be aa 4f 5e bd
       -0.05312716 0.16128576 -0.14673296 -0.054275192
000090 b5 40 e2 bc 53 1b c3 bd d4 82 58 3e a0 35 11 be
       -0.027618745 -0.09526696 0.21143657 -0.14180613
0000a0 18 cf 45 bd e6 d6 57 bd c3 3b 92 bc c2 53 6c bd
       -0.048293203 -0.052695177 -0.017850762 -0.057697065
0000b0 1e 38 7b 3e de f8 67 be 98 6a 0d be a7 d3 9a 3d
       0.24533126 -0.22653529 -0.13810194 0.07559901
0000c0 83 40 44 be 3b cb ca 3d 43 a8 30 3d 4c 54 71 3d
       -0.19165234 0.099020444 0.043129217 0.058918282
0000d0 62 33 0b 3e b8 3e 37 be 31 4a ae 3d 09 51 92 bd
       0.1359382 -0.17895019 0.08510245 -0.071443625
0000e0 e8 d6 c7 3c 96 1a 0a 3d e3 8c 52 bd 6b bb 94 3e
       0.024394467 0.03371676 -0.05140389 0.2904924
0000f0 0a c2 07 3e 36 f5 22 3e 2b 11 e8 3d 56 22 b2 bd
       0.13257614 0.15913853 0.113313995 -0.08697955
000100 9b 4a e1 bc a8 95 c8 bd d8 f5 ef 3d c3 b3 77 3c
       -0.027501395 -0.0979417 0.11716813 0.015118542
000110 e8 29 38 3e 9e d4 86 bd 47 88 03 bd 6f 62 44 be
       0.17984736 -0.06583522 -0.032112386 -0.19178174
000120 9a c3 3d 3e 00 e8 da 3c f7 fc ac bc 41 c0 1f 3e
       0.18531647 0.026721954 -0.021116717 0.15600683
000130 26 b4 35 be 03 e0 b4 bd 7b 11 43 be 14 5a e5 bd
       -0.17744502 -0.08831789 -0.19049637 -0.11198822
000140 8a ba 60 3e 9e 1a 5b bd c5 4b 36 3d 7e 89 00 3e
       0.21946159 -0.05349218 0.044505853 0.12552449
000150 b9 a1 38 3e e5 8e ea 3c 98 48 d0 3c c0 85 1f be
       0.18030442 0.02863259 0.02542524 -0.15578365
000160 65 08 c9 bd 75 ed 04 3e 75 ed 8f 3d 9e 02 d6 bd
       -0.09816054 0.12981208 0.07027713 -0.10449718
000170 79 3c 1e 3e fa 03 f2 bd 95 65 60 bb f0 d9 85 3e
       0.15452756 -0.11817165 -0.0034240235 0.26142836
000180 ec 01 ad 3d 69 a3 88 bc ac 79 8b 3e b6 ce ad 3c
       0.08447632 -0.016679483 0.27241266 0.021216732
000190 78 fb 23 3e 6f 20 2f be 6e 77 1a 3e 5b 44 81 bd
       0.16013896 -0.17102216 0.15084621 -0.06311866
0001a0 ef fc bd 3b 17 dc b5 bd e3 1c 2a 3e 8c e9 90 be
       0.0057979743 -0.088798694 0.16612582 -0.28303182
0001b0 6a 48 f8 3d 76 64 90 3d 9a 3b 3a be f9 a8 48 3e
       0.12123187 0.070504114 -0.18186799 0.19595708
0001c0 24 73 3b be 1f dd 36 3d 53 23 71 3d 96 b6 6e 3d
       -0.18305641 0.04464447 0.05887158 0.058279596
0001d0 71 7d 80 3e 7f 71 3c 3c b1 3e 51 be 7f e0 12 be
       0.25095704 0.011501669 -0.20434071 -0.14343451
0001e0 51 d0 34 be c8 0a 66 3e 5a 52 f6 bc 05 b0 07 bd
       -0.17657591 0.2246505 -0.030068565 -0.03312685
0001f0 36 3a 12 3d e2 d6 ef ba eb 3c a0 3d e6 23 06 be
       0.035700046 -0.0018298293 0.07824119 -0.13099632
000200 1e 66 3e 3d 8b 77 12 3e c9 61 fd 3d b5 db ca bd
       0.046484105 0.14303415 0.12372167 -0.09905187
000210 53 43 c3 bd 8f a3 8f 3c 6a 46 84 3c 87 6c 23 bb
       -0.095343255 0.017534046 0.016146857 -0.0024936514
000220 3d d4 10 3d 6f 10 0a 3e 66 d2 61 3e e2 fe c4 3d
       0.035358656 0.13482831 0.22052917 0.096189275
000230 8a 1b f0 bb 89 d1 ce bc 8a fb fd bc b9 77 25 be
       -0.0073275017 -0.025246399 -0.031003732 -0.16158952
000240 27 3f 0f 3e 8d 37 5e 3e 7d fb 01 3e f9 0e a3 bd
       0.13988934 0.21700878 0.12693591 -0.0796184
000250 2e cc 35 3d 95 52 2d bc c4 dc 49 3c 6b ce 33 3d
       0.044384174 -0.010578771 0.012320701 0.043898027
000260 90 22 a5 bd 74 58 9f bd 04 9a 8a bd b4 43 1f be
       -0.08063233 -0.07780543 -0.067676574 -0.1555317
000270 3d 5d 5a 3d 89 55 e0 3c 51 41 07 3e f8 3f df 3d
       0.053311575 0.027384536 0.1320851 0.10900873
000280 af 7f 2d 3d 0f fe 2d 3c e3 85 92 3d 08 0c 24 3c
       0.042358097 0.010619654 0.07154443 0.010012634
000290 3d 36 de 3c 23 73 bc bb 7e fe c1 3d f9 55 f3 bc
       0.027125472 -0.00575103 0.09472369 -0.02970408
0002a0 51 8f 56 bd 8d ca d3 bd fe b5 57 3c 2a 70 f8 3d
       -0.05238277 -0.10341368 0.013165949 0.121307686
0002b0 ea 4d 92 3d b6 ed ab bd 83 33 6a bb 7a ab 80 bc
       0.07143767 -0.08394949 -0.003573627 -0.015706766
0002c0 99 64 11 bd 33 82 91 bc 59 fd 98 3a 91 7b 96 3d
       -0.035496328 -0.01776228 0.0011672183 0.07347787
0002d0 0a 7b fb bb 69 52 14 3b 43 d8 31 3e 52 0f 09 bd
       -0.0076745795 0.0022632128 0.17367654 -0.033461876
0002e0 03 6c d7 3c 1e 5b 6e 3d 6a 40 2f 3d cd 27 d4 3d
       0.026296621 0.058192365 0.04278604 0.10359154
0002f0 f3 8f 39 3d 66 15 d4 3d a4 2b 22 3d 00 36 5c bc
       0.045303296 0.10355644 0.0395924 -0.013440609
000300 43 52 ea bd 98 81 6d bc 1f 17 db bb a4 c1 73 3d
       -0.114414714 -0.01449623 -0.006686106 0.059510842
000310 49 04 0a 3e 4b 0d 3b 3c b5 5d 3e 3e a2 20 88 3d
       0.13478197 0.0114167435 0.18590434 0.06646849
000320 d6 25 75 be f4 d8 af 3d 63 ec 2e bd 4e 6d 0b 3d
       -0.23940215 0.085863024 -0.042705905 0.034039788
000330 0b ab df bd 8a e9 13 3d 63 62 a1 bc 24 43 51 3d
       -0.10921296 0.036111392 -0.019700235 0.05108942
000340 a8 60 58 3d 93 1d e0 bd b6 ca 75 3e dd 27 fe 3d
       0.052826554 -0.10943141 0.2400311 0.12409947
000350 48 6e b1 3d e1 6f 36 3e fb 90 0f 3d aa 98 a5 bc
       0.086636126 0.17816116 0.035050374 -0.020214397
000360 4e 35 89 bc 0c 0c a0 3a e9 52 32 3e 23 4e d0 bc
       -0.01674905 0.0012210621 0.1741444 -0.025427883
000370 85 10 48 bd 2c da 8c bd d3 33 f9 3c a2 fd 3d 3e
       -0.04884388 -0.068775505 0.03042022 0.18553784
000380 85 03 c1 3d 15 75 49 bd 35 ce 08 3e 00 a7 59 3c
       0.094244994 -0.049183924 0.13359912 0.013284445
000390 eb 30 de bc 85 25 4b 3d ee cb e6 3d db 93 92 bd
       -0.027122935 0.04959633 0.11269365 -0.071571074
0003a0 c9 89 bb bb 2c b1 ea bd 10 ee 4c 3d 17 4d 84 3d
       -0.0057232124 -0.11459574 0.05003172 0.06460016
0003b0 d5 16 88 3d de 5d 4d 3d 61 c7 a5 bd bd f7 b2 3c
       0.0664498 0.050138347 -0.08094669 0.021846646
0003c0 c7 93 a0 bd 84 32 3a 3d 49 0d 2d bd cd 21 f6 3d
       -0.07840686 0.04545833 -0.042248998 0.12018166
0003d0 41 ca e2 3d 8f 3b 76 b8 96 0b 47 3d 31 f7 68 bd
       0.11073733 -5.870644e-05 0.048595034 -0.056876365
0003e0 7c 3e 23 bd 99 49 46 3d bb a5 29 bc 49 ce 46 bd
       -0.03985451 0.048410032 -0.010354455 -0.048536573
0003f0 21 27 bd bd 1c d2 07 3d 61 14 87 3b 3b c4 18 3d
       -0.09235979 0.03315936 0.0041223024 0.037296515

gru.bias_ih_l0 f4 [384]
000000 5e b6 3a 3e 35 c9 12 3d af 81 a3 3d 65 ca ae 3d
       0.1823363 0.035836417 0.079837196 0.085346974
000010 cb 0d 51 3c f7 26 ae 3c 1b b9 45 bc 6a e4 e8 bc
       0.012759636 0.021258814 -0.012068058 -0.028429229
000020 43 dd 7d 3c d6 84 b6 3d 40 e4 40 3d bf a7 46 bc
       0.015494647 0.08912055 0.047092676 -0.012124955
000030 09 54 8d 3d 25 20 ae bc d2 74 f4 3a e5 b2 f9 3d
       0.06900794 -0.021255562 0.0018650538 0.121923245
000040 56 1e 88 bd 36 9e e9 3d 05 8b b0 bb 39 c7 ff 3a
       -0.06646411 0.114071295 -0.005387666 0.0019514329
000050 a7 a2 9e 3d 58 d1 bb 3c 67 19 11 3d 47 8b 8d 3d
       0.07745867 0.022926971 0.035424616 0.06911331
000060 a6 63 a5 bd bf 8a 3c 3d 85 ec 06 3d af 0d 90 3d
       -0.08075647 0.046030756 0.032940406 0.0703386
000070 73 c2 dc 3d f2 88 ef 3d a5 9e bc 3d af a0 23 3d
       0.10779276 0.11696042 0.092099465 0.03994816
000080 05 bd 50 3c e8 31 dd 3c 48 bc 54 bd b8 08 b8 3c
       0.012740378 0.027001336 -0.05193737 0.022465095
000090 95 2a bd 3d 7c 09 f2 3d 5b 8f 07 bd 57 d0 ce 3d
       0.092366375 0.11818215 -0.0330957 0.100983314
0000a0 8e df 6a bd 08 a7 ae 3d e2 17 ea 3d ac a0 a4 bd
       -0.057342105 0.085279524 0.114303365 -0.08038458
0000b0 42 e5 90 3d be 1a 65 3d 25 23 39 3d 63 ad 04 3e
       0.070749775 0.055933706 0.045199532 0.12956767
0000c0 d5 92 a8 bc 76 f5 b8 3d 84 f8 98 bd c1 46 ca bc
       -0.020577827 0.09031193 -0.074692756 -0.024691941
0000d0 6e 05 c1 3d 4d 81 5a bd 6f 3e 08 bd 40 ab 3d bd
       0.09424864 -0.053345967 -0.033262666 -0.046305895
0000e0 50 fa 86 bd 02 a3 d7 3c df cf bf 3c db 15 01 3e
       -0.06590712 0.026322845 0.02341455 0.12605993
0000f0 be 5f b6 3d 0c 07 04 bd ef 8a 3e bd 86 d9 71 3d
       0.0890498 -0.032233283 -0.046519216 0.059045337
000100 79 f7 e8 3b 86 d4 fa 39 7f 3c 05 3d 4b 02 04 3a
       0.007109579 0.00047842058 0.032528397 0.0005035742
000110 c1 21 83 bd 5d 31 a7 3d d6 5a ea bc 0c d5 4b 3d
       -0.064029224 0.08163712 -0.028607767 0.049763724
000120 c5 52 2a 3d 43 88 de 3d e7 77 86 3d 8e ae eb bc
       0.04158284 0.108658336 0.06565838 -0.028769758
000130 03 2e 87 3d cd c1 f0 3c 9f 69 aa 3d 04 68 08 bd
       0.06600573 0.029389286 0.08320927 -0.033302322
000140 5e fa ec bc a0 5b 24 bd 53 01 f8 3c 72 96 29 bd
       -0.028927978 -0.040126443 0.030274069 -0.04140324
000150 c6 14 86 3b 0e 37 bc b9 02 d4 f6 bb 12 72 90 3d
       0.004091832 -0.00035899173 -0.0075325975 0.07053007
000160 e8 d3 d9 3d 85 c9 72 3d 5c 31 82 bc 30 0f e5 bc
       0.10636121 0.059274215 -0.015892677 -0.027961344
000170 a9 36 7f 3c df b0 31 bd 9b 81 08 3e 78 41 04 bc
       0.015576997 -0.043381568 0.1333069 -0.00807225
000180 4e 75 6a 3d f1 11 da 3d 2f ad 8d bd 15 ba c5 3d
       0.057240777 0.10647953 -0.06917798 0.09654633
000190 a7 b6 53 3c 49 00 4e bc 11 7a 30 3c 7c 3b 97 bc
       0.012921966 -0.01257331 0.01077129 -0.018460982
0001a0 05 6b 00 bd 90 8b 16 bc 30 c3 7d 3d 78 3d 00 3d
       -0.03135206 -0.009188548 0.061953723 0.03130862
0001b0 56 2a 4d bd 86 59 d5 3d b7 f1 d2 3d 43 7f 0f bd
       -0.050089203 0.10417466 0.1030001 -0.035033476
0001c0 05 18 08 3c 73 f7 b5 3d b1 52 f9 bc cd 80 9a 3c
       0.008306508 0.08885088 -0.030434938 0.018860245
0001d0 69 5a 44 bc 6c d6 24 3d 99 92 67 3a fd 01 c8 3d
       -0.011984446 0.04024355 0.00088337954 0.09766004
0001e0 bf ca a6 3c 4b 53 e4 3d 7e d9 91 3d d9 c9 b2 3d
       0.020360349 0.111486994 0.071215615 0.08729906
0001f0 ed f6 80 bd d1 8e b8 3d db 3d c4 3d c1 37 9c 3d
       -0.06297097 0.09011615 0.095821105 0.07627822
000200 de 90 4a bb d0 d3 31 3d 04 2e 93 3b 8c 60 24 be
       -0.0030909101 0.04341489 0.0044915695 -0.16052455
000210 46 84 25 bd ac 7b 35 3b 8e 72 21 be c4 1e ca bd
       -0.04040935 0.0027692122 -0.15766355 -0.09869149
000220 6c 76 29 bd 2a cd 27 3d 76 36 6d bd 33 47 02 be
       -0.0413727 0.040967144 -0.057913266 -0.12722473
000230 ca a7 d0 bc 9b c6 20 3c cb 08 16 be 50 d3 05 be
       -0.025470633 0.009812976 -0.14651792 -0.1306889
000240 a1 2c dc bd 19 f3 61 3d a0 4a c2 bd de ef 04 be
       -0.107507 0.055163477 -0.0948689 -0.12982127
000250 34 70 1f bd 9f a3 82 be ba 41 24 be 8d 77 25 bc
       -0.038925365 -0.25515458 -0.16040698 -0.010099304
000260 6e c1 a7 bd 42 16 97 bd 39 36 6f be fe f6 4d bd
       -0.08191191 -0.07377292 -0.23360528 -0.05028438
000270 dc 31 52 3d ad 5c e0 bd 82 ed e0 bd 3a 6c 09 be
       0.05131708 -0.109551765 -0.10982801 -0.13420191
000280 e2 a0 e6 bd 75 e5 68 3d b5 a8 0a bd 24 ff b5 3c
       -0.11261155 0.056859452 -0.033852298 0.022216387
000290 b3 dc d1 3c 7a a1 a7 bd 3f 8c 37 bd 35 6f 1e bd
       0.025617933 -0.08185096 -0.044811483 -0.038680274
0002a0 62 99 24 bd 98 82 41 be b7 b6 a6 bd a9 ec 5e bb
       -0.04018534 -0.18897474 -0.08140319 -0.0034015572
0002b0 f7 e9 66 3c 9b 6e 07 be ad 74 52 3d 2e 28 14 be
       0.0140938675 -0.13225786 0.051380802 -0.14468452
0002c0 29 94 89 3d ca c9 1d bd 01 69 53 be 17 8d 89 bc
       0.067177124 -0.03852252 -0.20645525 -0.01679091
0002d0 75 76 b7 bd 2e f4 be bc cf 40 08 3c 65 cf 14 bd
       -0.08958141 -0.023309793 0.008316233 -0.0363306
0002e0 a6 46 7f bb 17 6a b8 bd 98 d7 43 be 1f 5a 91 3a
       -0.0038952022 -0.0900461 -0.19125211 0.001108948
0002f0 cb c3 0e bc 04 16 d7 bc 4a a9 15 bc 47 f3 0e be
       -0.008713673 -0.026255615 -0.0091346 -0.1395999
000300 a7 aa f0 bd 1b 41 c2 3d a8 52 a0 bd 29 44 d2 bd
       -0.11751299 0.09485074 -0.078282654 -0.10266907
000310 23 2a 57 3b 80 2a 4f bd ed fe fa bc c6 fd d8 bd
       0.0032831512 -0.05057764 -0.030639136 -0.105952784
000320 e0 11 69 3d 86 a5 1d be 3d 9e 8e bd 65 9e 0f 3d
       0.056901813 -0.15395173 -0.06963775 0.035063166
000330 e5 ee 93 bd 2b 30 dc bd 7e 87 f2 bd c8 90 7f 3b
       -0.072233 -0.10751375 -0.11842249 0.0038996208
000340 76 b1 c3 bd 69 27 cf bd cf da 04 be bd af 76 3d
       -0.09555332 -0.10114939 -0.12974094 0.06022619
000350 14 4f f0 bd 4b 98 f7 3c 32 41 46 bd ce ac d7 bd
       -0.11733833 0.030223986 -0.04840202 -0.10531007
000360 79 f2 58 3c 82 1f 59 3c 75 e6 5f bd 5b 5a 49 bd
       0.013241404 0.013252141 -0.05466314 -0.049158435
000370 97 e0 92 bd 8d de 98 bd a8 42 88 be b2 03 09 3d
       -0.07171743 -0.07464323 -0.26613355 0.03345079
000380 be 70 63 be 2b b1 81 bb 4c 94 15 3d 40 c7 9b bd
       -0.22210976 -0.0039578876 0.03651838 -0.07606363
000390 88 f5 1b bd 43 fd 15 3d 1d 39 17 3d 4b 53 27 b8
       -0.038075954 0.036618482 0.0369197 -3.9893475e-05
0003a0 98 dd 1b be ae 9f a4 bd fc 98 69 bd a1 e1 33 bd
       -0.1522125 -0.08038269 -0.057030663 -0.04391635
0003b0 53 6d 87 3d 56 98 71 3d f7 5e a0 3b df 8d 5b bd
       0.06612649 0.05898317 0.004894133 -0.053602096
0003c0 50 ce e4 bd 72 03 a6 bd db 00 8d bc c4 9e 60 be
       -0.111721635 -0.08106126 -0.017212322 -0.21935564
0003d0 31 8a bc 3c 41 77 ca bd 6b 1a 0c be 2c 10 a9 bd
       0.023015114 -0.09886027 -0.13681953 -0.08255038
0003e0 38 ac 80 bd a4 70 04 be d3 0e 24 bd ac 3d c1 bc
       -0.06282848 -0.12933594 -0.0400532 -0.023588978
0003f0 5e 81 10 bd 0f 84 fc bd 31 32 d3 bd 4b 39 4d bd
       -0.035279624 -0.12329876 -0.103123076 -0.050103467

gru.bias_hh_l0 f4 [384]
000000 96 17 b0 3d b4 ae 50 bd 84 c2 a1 bc b4 c9 90 bb
       0.08598249 -0.05094786 -0.019746073 -0.004418576
000010 2f 4c 8e 3c 43 3b 6f 3d 93 04 09 3d 12 d8 c9 3d
       0.017370312 0.058406126 0.033451628 0.09855665
000020 1d 9c d8 bc 89 0f 69 3d 5a 1b 30 3d 24 b8 de bc
       -0.026441628 0.05689958 0.042994834 -0.027187414
000030 27 5c 1e bd 32 d0 f6 3d 4d 1d 5c 3d ad f2 39 3d
       -0.038662102 0.12051429 0.05373888 0.04539745
000040 15 7a b2 3d 39 a3 ae 3d 9e 82 88 3d 95 f1 c5 3d
       0.087146915 0.08527226 0.06665538 0.09665219
000050 07 44 9a 3c 0d 83 c9 3d 9c 24 2d bc 3d b3 f3 3d
       0.018831266 0.09839449 -0.01056781 0.11899421
000060 ff 5f 50 bd d8 9c be 3c 71 f0 24 bb 25 45 74 3d
       -0.0508728 0.023268148 -0.0025167728 0.059636254
000070 b0 08 7f bc 6b fa b9 3c 7e 75 52 bd 67 a7 49 bc
       -0.015566036 0.022702416 -0.05138158 -0.012307978
000080 fb 6c 75 3c 4f f9 45 3d f8 b1 f6 3d 37 9f b2 3d
       0.014979596 0.048333462 0.120456636 0.08721774
000090 3d 85 23 3d 0a 1b ab 3d da 06 8b bd 73 cd c8 3d
       0.039921988 0.08354767 -0.06788416 0.09804811
0000a0 e4 89 ef bc 17 f3 86 bc fa 21 e1 3d c1 0b d2 39
       -0.029240556 -0.016473336 0.10992809 0.0004006308
0000b0 3d 81 b3 3d 50 9e bb 3d 58 74 cd bc f8 11 0e 3e
       0.087648846 0.09161055 -0.025079891 0.13874042
0000c0 d7 13 97 3d cb 56 5a 3d 04 96 29 3d 45 ab b9 bc
       0.07376831 0.05330543 0.04140283 -0.022664675
0000d0 8d 77 71 bd 42 ba ba bd 13 5b 2f bd 5a 6d 95 bd
       -0.058951903 -0.09117557 -0.042811465 -0.07296248
0000e0 e6 b2 06 3d 68 8c de 3c ec de 7c 3d 1d fd d3 3d
       0.032885455 0.02716656 0.061736032 0.10351012
0000f0 c8 62 8e bc 5d 82 5f 3d 94 4c f0 bb 66 a5 e5 3d
       -0.017381087 0.054567683 -0.0073333476 0.11213188
000100 b7 b3 c3 bb 64 ee da 3c 66 16 b1 3d cd 3d 8c 3d
       -0.0059723514 0.026725002 0.0864685 0.06847725
000110 89 70 73 3d 24 8a 11 3e cf 29 3e bc 12 37 07 3e
       0.059433494 0.14212853 -0.011606648 0.13204601
000120 69 49 c7 3d 4d 56 53 3d d5 f8 73 bc c1 43 29 3d
       0.09730799 0.051595975 -0.014890869 0.04132438
000130 6f 99 ee 3d f5 76 24 3d d6 6e 80 bb 87 0e af 3d
       0.11650359 0.04015251 -0.0039194627 0.08547693
000140 b2 fb 63 bb 00 ee 83 3d 0f 78 d5 3d 87 f7 bd 3b
       -0.0034787473 0.06441879 0.1042329 0.00579733
000150 33 65 e6 3d a8 95 2b 3d 02 9d da 3a 3d 17 36 3d
       0.11249771 0.04189077 0.0016678872 0.044455756
000160 5f 93 ad bc 20 5a 01 3e 19 dc e4 3d 60 07 a5 3d
       -0.021188436 0.12632036 0.11174793 0.08058047
000170 a0 0f c5 3d 08 e9 81 bc 1e 4b 03 3e 2f 3d 65 3d
       0.09622121 -0.015858188 0.12821624 0.055966552
000180 ad 90 e5 bc c0 c3 06 3e a3 0b e7 bc b8 74 76 bd
       -0.028023088 0.1316061 -0.028203791 -0.060169905
000190 df da 1a 3d 40 5d de 3d e6 22 d7 3d 57 4b 34 bd
       0.037806388 0.1085763 0.10504703 -0.044017162
0001a0 ad b4 62 bd ff f0 eb 3c 98 f4 e1 3c df 20 69 3d
       -0.055348087 0.02880144 0.027582452 0.056916114
0001b0 1b 66 51 3d 46 b1 b0 bb e5 09 19 3d 06 6f 19 bd
       0.051122766 -0.0053922264 0.03736295 -0.037459396
0001c0 42 2f e1 3d 88 33 21 3d 90 25 34 bd 9a 16 a2 3d
       0.10995342 0.039355785 -0.043981135 0.07914467
0001d0 14 0a 99 3c 82 1e 92 3d 2d 81 d8 3d ba 80 85 bc
       0.018681563 0.07134725 0.10571513 -0.016296733
0001e0 e6 36 a2 bd 29 dc 94 3d 0e 11 0b 3e 6e be d7 3c
       -0.07920627 0.07268555 0.13580725 0.026335921
0001f0 e6 8a 86 3d 65 22 f6 3d ff 51 eb 3b c0 81 a9 3d
       0.065694615 0.12018279 0.0071814056 0.08276701
000200 56 21 9a bc 7a 2b 17 bc 5b bd 90 bc cd bb 61 be
       -0.018814724 -0.009226674 -0.017668417 -0.22044297
000210 fb a9 33 bd 0f f9 90 bc 67 0e 0e bd ca 87 4d be
       -0.043863278 -0.017696885 -0.034681704 -0.2007133
000220 cb fc 19 be 9d 4d 8d bd 2d 35 7d bd 53 2e e4 bd
       -0.15037839 -0.06899569 -0.06181829 -0.11141648
000230 7b 44 be bd 8b 41 8f 3d 46 4c ab bd b9 04 2e be
       -0.09290405 0.06994923 -0.083641574 -0.16993989
000240 ab 64 e5 bd 3a 64 34 3d d5 44 20 be 12 76 49 be
       -0.112008415 0.044040896 -0.15651257 -0.19673946
000250 4f 1e 2a bb 82 dc 6d be 02 8e 18 be 7e d8 3e 3d
       -0.0025958007 -0.23228648 -0.14897922 0.04659318
000260 c5 46 39 bd 40 67 9b bc 44 58 17 be 8a 0f 44 be
       -0.045233507 -0.018970132 -0.14779764 -0.19146553
000270 90 3d a5 3d 7b 8f 63 bd 34 fe 74 bc 14 74 ce bc
       0.08068383 -0.055556756 -0.014953185 -0.025201835
000280 61 c3 87 bd f8 de 91 3c 0f 98 24 be 63 28 57 3c
       -0.066290624 0.017806515 -0.16073631 0.013132188
000290 7a 77 b8 3b 54 4c 3f bd 13 a2 1e be 9f 09 08 3d
       0.005629477 -0.04670365 -0.15491514 0.0332123
0002a0 ff 67 65 3d d7 5a 04 be 40 be 5c bd 45 f7 de bd
       0.05600738 -0.12925278 -0.053892374 -0.10887007
0002b0 34 64 60 bd 4d f3 9e bd c3 39 39 bd 6b 52 18 bd
       -0.05478306 -0.0776125 -0.0452211 -0.037187975
0002c0 78 39 e4 bc fb d8 f6 bd a7 f6 54 bd 9f 7a 07 be
       -0.027859434 -0.120531045 -0.05199304 -0.1323037
0002d0 b0 01 9d bd a7 fd 5a bd 29 8a 39 bd 1c 4b 8c 3d
       -0.076663375 -0.053464558 -0.045297775 0.068502635
0002e0 fb e6 7b ba 2d b2 98 bd 85 9d 58 be 3c 9c d9 3c
       -0.0009609309 -0.07455859 -0.21153839 0.026563756
0002f0 68 07 0b be 75 6c a6 bd 7a 3d 24 bd 4a 7b ed bd
       -0.13577044 -0.08126155 -0.04009769 -0.11595781
000300 08 65 35 be 95 2a 53 3d f3 2d 9b bd 24 d7 2d be
       -0.17714322 0.05155428 -0.075771235 -0.16976601
000310 95 93 b8 bc 9a e9 e6 bd 34 54 fc 3c 84 8f 23 bd
       -0.02253131 -0.11275025 0.03080187 -0.03993179
000320 b9 44 8e 3d 4b a4 9e bd fa 78 01 bd e2 16 90 3d
       0.069467016 -0.0774618 -0.031609513 0.070356146
000330 3e f4 63 bd 53 a2 38 be bb 9b 9d bd f4 3d 0b be
       -0.05565285 -0.18030672 -0.07695719 -0.13597852
000340 9f 65 d7 bd 28 2d 9a bd a9 db 97 b9 8f 36 f0 bc
       -0.105174296 -0.07528144 -0.00028964624 -0.02932289
000350 78 88 3f bd 95 b0 b0 bd a1 cc a2 bd 63 ae 5b be
       -0.046761006 -0.0862743 -0.07949186 -0.21453242
000360 c4 58 8d bd c9 28 86 bd 6e b4 82 bd 7a 5a fb bd
       -0.06901696 -0.06550748 -0.063820705 -0.122731164
000370 a9 e9 11 be a5 9a e0 3b e3 dc 6b be 88 97 66 3d
       -0.1424929 0.0068543726 -0.2303348 0.056296855
000380 b9 6a fb bd d9 90 5c bd 05 6f be bd fd 38 4b bd
       -0.12276215 -0.053849075 -0.09298519 -0.049614895
000390 68 21 07 be 4f fd c6 3c e1 20 35 bd f2 75 f6 bc
       -0.13196337 0.024290709 -0.04422081 -0.030085538
0003a0 57 79 11 be c8 c6 f5 bd 66 8a f9 bd f0 72 3a bd
       -0.14206444 -0.12000805 -0.121846005 -0.04551977
0003b0 4e d5 b6 3d 66 bc 67 3d 77 b2 53 bc 45 68 b4 3d
       0.089274034 0.056576155 -0.012920967 0.0880895
0003c0 bb 69 bc 3b c9 00 53 bd 6d 45 1f 3d 97 78 7c bd
       0.0057499087 -0.05151442 0.03888457 -0.06163844
0003d0 ae 00 99 bd 32 31 b3 3c 83 8b 03 be 1b d5 af bd
       -0.07470833 0.021874044 -0.12846188 -0.085855685
0003e0 e1 47 9d 3b 73 60 76 3b 05 67 13 bd 41 8b 8c bd
       0.0047998284 0.003759411 -0.03598692 -0.06862498
0003f0 35 26 be bd 7e 05 00 be b2 b2 86 bd 80 c1 16 3d
       -0.09284631 -0.12502095 -0.06577052 0.03680563

fc0.weight f4 [64, 128]
000000 70 33 b9 bd d5 81 f7 3e 87 cf e4 3e 28 b6 15 3b
       -0.09043014 0.4834124 0.4468958 0.002284417
000010 3a 99 3e be 94 5c 05 be 49 66 da 3e 16 66 a3 3c
       -0.18613139 -0.13023597 0.42656162 0.01994614
000020 ba ac 61 be 4f a1 c5 3d e2 e7 c9 3e 74 4e be 3e
       -0.22038546 0.09649908 0.39434725 0.3716923
000030 0c d8 0b be d5 4f ba bc 1e ec 95 3c 16 1d af 3b
       -0.13656634 -0.022743145 0.018301066 0.0053440435
000040 31 d2 a2 3e 2a b5 dc 3e 0f 61 de 3e 6f 0f 6b be
       0.31800988 0.43106967 0.43433425 -0.22955106
000050 c9 e7 67 be 29 87 80 be a5 25 7e 3d d0 95 84 bd
       -0.22647013 -0.2510312 0.06204762 -0.06473887
000060 b6 e7 ae bd 50 b6 12 3c 72 6c a8 3e 4b 97 09 bf
       -0.08540289 0.0089545995 0.32895237 -0.5374648
000070 4a ea e1 3c f5 88 89 3e 1e d4 c8 3e 2a 34 c7 3e
       0.027577538 0.26862302 0.39224333 0.38906986
000080 b6 44 1d 3a bb 15 d6 3e 29 cf 13 3e 51 7e 07 3d
       0.00059993134 0.41813454 0.14434494 0.03307945
000090 1c 6f eb 3d b3 e2 9e 3e ef 23 e7 3e 1a 1e e4 3d
       0.11495802 0.31032333 0.45144603 0.11138554
0000a0 c9 75 8e bd 7d 21 52 be 6d b1 8b 3e 16 c4 ac 3e
       -0.069560595 -0.20520587 0.27283803 0.33743352
0000b0 e4 5c ad 3e 4a 8b 47 3e f5 aa 75 be 3e a6 a8 3e
       0.33859932 0.19486728 -0.23990996 0.32939333
0000c0 a4 54 b7 bd b6 88 ac 3e 7a 03 1d be bb 38 dd 3e
       -0.08951691 0.33698052 -0.15333357 0.43207344
0000d0 2d 4a e4 be c5 1a 59 3e 42 7a 35 3e 0f 4c 0f bd
       -0.44587842 0.21201618 0.17722419 -0.034984645
0000e0 6b 1c f6 3e 71 9a ad 3e 7a 3c e7 bd 8d d1 a6 3e
       0.48068556 0.33906892 -0.11290832 0.3258175
0000f0 db 1f cb 3e 40 83 b7 3e c9 55 c9 3e c7 2d 9a 3e
       0.3967274 0.35842323 0.3932326 0.3011305
000100 55 7c 9b bd 8e 9d 44 3e 4a d1 c4 3e f2 7c 0c 3e
       -0.07592074 0.19200727 0.38440925 0.13719538
000110 04 94 aa 3e 2c 82 8e 3e e2 fc dd 3e 6f 82 67 be
       0.33316052 0.27833688 0.43356997 -0.2260835
000120 d2 48 7a 3e 90 16 d9 3e b6 00 09 3e 79 66 aa 3e
       0.24441841 0.42400026 0.13379177 0.33281305
000130 b0 5d e7 bd 4e c8 79 be f7 9a 8e 3c 6c ee 77 3e
       -0.11297166 -0.24392816 0.017407877 0.24212044
000140 1e d9 9e 3e 20 6e ea 3d f5 5c bd 3e d2 d0 d8 3e
       0.31025022 0.11446786 0.36984983 0.42346817
000150 35 b8 e6 3e b8 66 e4 3e 37 9c eb 3e 22 c2 38 be
       0.45062414 0.44609618 0.4601762 -0.18042806
000160 02 ab 2d 3e 2f 29 a9 3e 32 f5 40 3e d2 0c fd 3e
       0.16959766 0.33039233 0.18843535 0.49423844
000170 f0 6e be 3e 16 29 86 3e bc e7 ec bd d7 13 d3 3e
       0.37194014 0.2620322 -0.11567637 0.41226074
000180 f7 34 ad bd 68 55 65 be 4a d8 b2 3e 91 37 b9 3e
       -0.08457368 -0.22395861 0.3493064 0.36175206
000190 5c cf a2 3e 7d 1c 58 be 1b f1 cf 3e 0a 17 2b 3c
       0.31798828 -0.21104617 0.40613636 0.010442505
0001a0 cd 35 cc 3c 5f 09 9b bd 83 11 5d bd 0c 60 0f be
       0.024927998 -0.07570147 -0.05397178 -0.14001483
0001b0 48 08 d8 3e 4e 6d 52 3e 57 97 ca 3c 46 48 73 3d
       0.42193818 0.20549509 0.024730368 0.059395097
0001c0 7e e7 7c 3e bf fe 43 3e 77 13 c6 3c 75 35 7e be
       0.24697682 0.19140147 0.024179203 -0.2482508
0001d0 f0 34 ca 3e 7e 79 d3 bd db 25 2b 3c 13 99 9e 3e
       0.39493513 -0.10325907 0.010446037 0.3097616
0001e0 79 b3 be 3e 62 c6 b6 3e 96 ab e9 3e d3 e4 c9 3d
       0.37246302 0.3569823 0.45638722 0.09858098
0001f0 cf 45 8b 3e 1e ff ad 3e c9 cb 87 3e 75 aa df 3d
       0.27201697 0.339837 0.26522663 0.10921184
000200 4b d6 d0 bd d9 8d ec 3e 6d 7d ed 3e 1b 9b bb be
       -0.10197123 0.4620197 0.46384755 -0.36641774
000210 a6 07 0f bf 29 83 5c bf be bd fb 3e bb dc d3 bc
       -0.55871046 -0.86137635 0.491682 -0.025862088
000220 d4 c5 62 bf d2 46 09 3e 43 e2 e8 3e 9b 6b 01 3f
       -0.8858311 0.13405922 0.45485124 0.5055482
000230 ff c5 f6 be b4 85 fe 3c 30 fc 42 be d3 44 0f bf
       -0.48197934 0.031069614 -0.19041514 -0.5596439
000240 ce 96 e5 3e 61 3e aa 3e 3e 2c 04 3f f8 2d 12 bf
       0.44841617 0.33250716 0.5163001 -0.5710139
000250 25 9f 27 bf d4 71 45 bf 46 c0 bc bd c2 82 1e bf
       -0.6547721 -0.7712681 -0.09216361 -0.6191827
000260 ed b5 f5 bd 9b ed d9 bd 98 a6 7a 3e 00 3b 98 bf
       -0.1199759 -0.10641023 0.24477613 -1.1893005
000270 26 36 16 be 7c 2b 91 3e 36 32 d3 3e 70 88 01 3f
       -0.14669093 0.28353488 0.41249245 0.5059881
000280 01 f5 78 be 4b c9 9c 3e 38 ca 7e bc 4f 50 00 bf
       -0.24312212 0.30622324 -0.015551142 -0.5012254
000290 b8 58 8d 3e a0 1e c3 3e e6 21 9f 3e 51 61 be bd
       0.2760675 0.38109303 0.3108055 -0.092959054
0002a0 d0 3b 13 bf 70 b8 17 bf d9 73 aa 3e 58 5f ef 3e
       -0.5751314 -0.59265804 0.3329151 0.4675243
0002b0 39 a8 c7 3e 54 8a 9c 3e 57 e1 4b bf 9f 3e 68 3e
       0.3899553 0.30574286 -0.79640716 0.22680138
0002c0 bf 8e 60 be f8 8e c3 3e 62 89 03 bf 93 27 c2 3e
       -0.21929453 0.38195014 -0.51381505 0.37920818
0002d0 b2 e1 68 bf d4 dd ab 3e 03 47 70 3d 6e a3 e6 be
       -0.90969384 0.3356768 0.058661472 -0.45046562
0002e0 36 31 f0 3e 88 2a 92 3e 0a 35 83 be 2a aa c8 3e
       0.46912545 0.28548074 -0.25626403 0.39192325
0002f0 24 85 dd 3e 85 f7 fc 3e 82 27 a9 3e 3b 9e 43 3e
       0.4326564 0.49407592 0.33037955 0.19103329
000300 8f 63 6a be 73 25 80 3e da de cf 3e f3 23 ba 3d
       -0.22889541 0.2502857 0.4059971 0.09088888
000310 37 07 9a 3e 9d 30 3f be 06 b5 f4 3e ca 1f 0a bf
       0.3008363 -0.18670888 0.4779436 -0.53954756
000320 8e 4f e8 3d ee d9 d3 3e e8 3a 84 3e 9d a8 94 3e
       0.11343299 0.41377205 0.25826192 0.29034892
000330 bd 97 21 bf dc ff 30 bf 85 d7 42 be 60 7d 63 3e
       -0.6312216 -0.6914041 -0.19027527 0.22215796
000340 8c 85 db 3e 51 93 27 3c 3b 6b e0 3e b3 33 d6 3e
       0.42875326 0.010227994 0.4383181 0.41836318
000350 33 d2 d6 3e 73 f6 0d 3f ae 25 fa 3e e9 63 ba be
       0.41957244 0.55454177 0.48856872 -0.3640435
000360 75 3c 1b 3e eb 7a a3 3e 72 fd 3d 3e de 9d fa 3e
       0.15159781 0.31929716 0.18553713 0.48948568
000370 3e 5a e2 3e 1b a6 25 3e 3d 75 f4 be 91 1b ec 3e
       0.44209474 0.16176645 -0.47745696 0.46114781
000380 0d 14 05 bf cd b6 29 bf 63 7a 88 3e 88 fc 9b 3e
       -0.5198372 -0.66294557 0.26655874 0.30466104
000390 c4 62 e4 3e 04 48 0f bf 93 dc b6 3e 18 44 32 be
       0.44606602 -0.5596926 0.3571516 -0.17408788
0003a0 c1 ed c5 be 1d 62 23 bf e3 38 3e be 6e c0 bf be
       -0.38657954 -0.63821584 -0.18576388 -0.374515
0003b0 ca 7e d0 3e 48 b9 59 3e b8 a9 33 bf ce 03 df bc
       0.40721732 0.21262085 -0.70180845 -0.027223494
0003c0 5d e9 22 3e af a8 cc 3e 82 b2 7c 3d c3 3e 16 bf
       0.15909334 0.39972445 0.061693676 -0.58689517
0003d0 2e 93 93 3e f5 19 8a be bb 26 e8 bd 4e b4 96 3e
       0.28823227 -0.2697293 -0.11335512 0.29434437
0003e0 5b b1 bf 3e 3f 2c af 3e 8d 29 b4 3e ef 0f 90 bb
       0.3744 0.34213445 0.3518795 -0.0043964307
0003f0 a5 c0 45 3e a0 be ab 3e 43 8f b4 3e e7 b5 a2 3e
       0.1931177 0.33543873 0.3526555 0.31779405

fc0.bias f4 [64]
000000 e4 7c ac 3e b4 09 a3 3e bb be 71 3e 50 53 57 3d
       0.33689034 0.3184334 0.23607914 0.052569687
000010 73 c8 33 3e 01 d2 70 3d da 7a a4 3d 30 23 29 bb
       0.17556934 0.058794025 0.080312446 -0.0025808327
000020 d7 36 68 3e 42 5d 52 bd 82 72 a2 3e 51 51 4f 3c
       0.2267717 -0.05135847 0.31727988 0.012653665
000030 0d 94 ec 3d 2c f0 76 3e ba c4 94 3e aa 21 60 bc
       0.11551676 0.24115056 0.2905634 -0.013679901
000040 2c 1d 8d 3d 5a 87 80 bd a9 d2 4b 3e 4d 87 35 3d
       0.0689033 -0.06275816 0.19904579 0.044318486
000050 89 8a 5c 3d d5 e8 0c 3c 06 ec 84 bd e5 8c cb 3d
       0.053843055 0.008600433 -0.064903304 0.09938983
000060 c9 f6 b2 3d 2a 93 c3 bd d9 bb c7 bc f0 78 89 3b
       0.08738477 -0.09549554 -0.024381565 0.004195325
000070 b6 42 69 3e 79 f8 f7 3d 95 b6 43 bd 9f 05 48 3d
       0.22779354 0.12107939 -0.047781546 0.048833486
000080 4c f7 b7 3d c9 b9 4b 3d bf bc f8 bc ce f2 7c bc
       0.08982715 0.049737725 -0.030363439 -0.0154387485
000090 7b 4f 9d 3e c4 f2 ea 3d 51 82 75 3e 87 79 99 3c
       0.307247 0.11472085 0.23975493 0.018734707
0000a0 6f 22 40 3e c6 e7 85 3d 53 7d 45 bd bb 9f f7 3d
       0.18763135 0.06538348 -0.04821522 0.12091013
0000b0 7d b4 45 3d 38 98 35 3e 60 90 1b 3d 10 a2 55 3e
       0.04826783 0.17733848 0.037979484 0.20862603
0000c0 b0 79 8e 3d 22 3b 60 ba 2f 84 87 bc a4 4a 99 3d
       0.06956804 -0.00085537334 -0.016542522 0.0748494
0000d0 93 2e 76 3d 5a ec aa 3d 38 14 b3 3d 2e cc d7 3a
       0.06010301 0.08345862 0.08744091 0.0016464049
0000e0 e5 c2 82 bc 13 bb 0d 3c da 16 3a 3c 18 cf 85 3d
       -0.015962074 0.008650559 0.011357987 0.065336406
0000f0 05 2d 53 3e 5a 01 cf bc ab 50 0b 3e 95 5f 49 bd
       0.20622642 -0.0252692 0.13604991 -0.04916342

fc1.weight f4 [1, 64]
000000 82 d4 01 3f ee 8c 1e 3f 8e 6f 27 3f 6f ba ca be
       0.50714886 0.6193379 0.65404594 -0.39595363
000010 fe 9e 06 3f 93 fd 65 be 6b b5 a4 be 0b ad cf 3e
       0.5258635 -0.22460012 -0.3216966 0.4056171
000020 82 00 11 3f 77 45 18 bf 08 67 08 3f c9 24 bb 3e
       0.566414 -0.59480995 0.53282213 0.36551502
000030 1f 2e e2 3e 8a 23 18 3f db d2 14 3f ef 0f 15 40
       0.44175813 0.5942923 0.5813424 2.3290975
000040 9d 15 4d be 08 1e 03 3d c1 db 05 3f 52 54 65 bf
       -0.20027776 0.032011062 0.5228844 -0.8958179
000050 a9 57 a0 be 31 f7 ab be ee 9e e8 be a9 19 f0 3e
       -0.3131688 -0.3358703 -0.45433754 0.46894577
000060 da ff 9a be ea bc e9 be c2 b6 bb be a0 20 cc be
       -0.30273324 -0.45651942 -0.3666287 -0.3986864
000070 30 63 15 3f 28 cf b7 3e 17 fb c1 be 14 72 00 3f
       0.58354473 0.35900235 -0.3788688 0.5017407
000080 d6 74 e4 be d6 8d 82 bf d5 1b 11 3f 06 59 8b be
       -0.4462039 -1.0199535 0.56683093 -0.27216357
000090 85 5d 0e 3f be 74 a6 be ef 25 0d 3f 30 4a d9 be
       0.5561145 -0.32510942 0.5513601 -0.42439413
0000a0 c1 6e 1a 3f 35 63 ba be 4f 3d fb 3e d1 85 09 3f
       0.6032525 -0.36403814 0.49070212 0.5371981
0000b0 16 98 a5 be 1b 46 1e 3f cf 1e 85 be d1 78 10 3f
       -0.32342595 0.6182572 -0.26000068 0.5643435
0000c0 07 6d 94 be b8 2e ab be e5 c4 51 be 33 3d a5 be
       -0.2898943 -0.3343408 -0.20485266 -0.32273254
0000d0 04 2d b7 be 78 e6 d7 3e 21 e0 fb 3e 74 46 9d 3e
       -0.35776532 0.4216802 0.49194434 0.30717814
0000e0 61 bc f6 be 11 14 8f be e9 97 b1 be 39 91 83 be
       -0.48190597 -0.27944997 -0.3468621 -0.25696734
0000f0 25 34 f9 3e 00 ef c2 3e 76 ac e8 3e ed 5e 81 be
       0.48672596 0.38072968 0.45444077 -0.25267735
